Mini_project - Copy/models/weather_forecast_model_v2.pth (torch, 992564 bytes, 10 tensors)

lstm.weight_ih_l0 f4 [512, 4]
00000000: 8c79 fe3c 5a78 e03d 8d75 3fbe 36d8 0cbe
00000010: 8fcf a83b e671 22be 4151 79bc 5b6f 053b
00000020: 1f78 98bd 3fe1 1b3d b200 ca3d 3220 dbbe
00000030: 63c9 9dbd 4e58 dbbd 0611 f23c 6f21 18be
00000040: 99ff 8bba e8b3 313e 5d61 32be 821e d6bc
00000050: 589b 52be 5e65 3abe 732c ffbe 36a9 a2be
00000060: e9cb 913c b7f6 f73e 3d7b a2be f977 09be
00000070: 19b4 dcbd b4dd 033d 98e9 01bc 7670 0cbe
00000080: 7f8b 2e3e 5e82 0d3e 34a7 a7bd 32fc d53c
00000090: 02a4 ebbd c47d 02be 6965 afbc 3c89 1abe
000000a0: 8ec4 263d aa9f c6bd 860f 40be ad78 c6bd
000000b0: 59c3 ffbd 6136 9d3e 91c4 043e e449 353e
000000c0: 492e 113e 2f57 b5be 1454 d23d f727 80bc
000000d0: 7271 6f3d 635b dfbd 1004 c6bd d9f8 f6bd
000000e0: 15a0 2cbe 3294 1abd fa04 7dbd 273a 76be
000000f0: dc0c f6bd 3a80 55be 15f7 cfbd aa3d 093d
00000100: 86db 81be 2458 01bf 3f57 013e c11a 5ebc
00000110: 22f7 1ebd c463 dd3e e9fe 603e fa21 f23d
00000120: 3457 fabd 0e18 fc3d 7114 6ebd e1a5 953e
00000130: a9ae 563e 30a0 68be 5d9a 283e ff94 58bd
00000140: ad91 2abe 43f4 1abe c00d 1bbc 1325 a2bd
00000150: 3287 d33d 1c13 6a3e c66d 76bd 9d2e 0bbd
00000160: a3e7 ba3c 5feb 1bbd 1a33 08be 46da 38bc
00000170: 747c bcbb 12b5 4d3c 5c7c 19be cb77 1cbd
00000180: 7bb6 0b3e 0b2a 8b3e a2d0 52be 24e2 aabd
00000190: ac0a cbbb 7a7a a73d 4b24 8cba 406e 413d
000001a0: eaca 1dbe e8d3 0f3e 45ce 7e3e b4eb f53d
000001b0: d227 fcbc ba0c 233e 9f64 2e3d ba73 24bc
000001c0: 6437 e2bd ec70 7c3c 7231 5fbc c6ff 92bc
000001d0: 5910 343e f382 bbbe c18f c8bd 6438 cabd
000001e0: 3b00 733c 15c6 c0bc 825a fcbd 532c 95bc
000001f0: 0a79 2fbe 7090 febe 7f30 1b3e 57a8 0cbb
00000200: 5c05 453d d0c4 003b d280 33be c495 06bc
00000210: 94d5 b8bb 6617 143f bcc4 023d d1aa 00be
00000220: e93f 93bd 1ef3 03be 2d52 44be 0471 c4bc
00000230: 4666 d2bd 5339 aabd ba43 0dbe 8302 31be
00000240: 0179 45be 92f8 e7bd 4140 72be 7d69 a0be
00000250: c8aa 06be 1bb2 e13c eab2 17be 63a8 05bd
00000260: 2e5a e03c e744 b0bd e987 9b3e 7db2 ca3e
00000270: 7629 0abe 4413 3bbe 37bf 113e 1299 023a
00000280: 2d48 113b 0629 703f 3a9d c7be c18d 98be
00000290: bfb6 903d 617f c4be cdf1 bf3d c7fc 04be
000002a0: 41a5 bcbd ecbe dcbc c91e f3bb c048 ccbd
000002b0: 99c7 b0bd 7663 51be a682 2dbe aace 65be
000002c0: 1fcf b8bd 1c59 94be e961 01be 3419 4cbe
000002d0: 09a5 9fbd b836 f8ba dbab 7ebd b124 3fbd
000002e0: 6dbd 06be 854c 30be ee46 e9bd 5f55 9c3c
000002f0: 8491 37bd 65f5 2fbe 06c5 c7bd 6583 4fbe
00000300: 7d36 4ebe fa5e 2f3e 3271 44be 4625 a53c
00000310: 39d5 043d e21b fb3c b74b d23d 182d bf3d
00000320: ce65 b9be 44ea 06be 8f5f 63bf bd4d 89be
00000330: 356b 1abd 669e dabd 6d14 16be d3af a7bd
00000340: 4e8e 893c 73b3 0bbe 1003 efbd 1412 a5bd
00000350: 94f5 4abe b7ff 9a3d cbcb ccbc ae84 e7bc
00000360: c6e7 6f3c e5a9 d5bd f607 043e c8ee f13d
00000370: b661 01be f532 09be d792 0abe bdb9 e7bd
00000380: 59d5 32be a3cf c3be 7945 873d 195f 3d3d
00000390: 8dac 093d 2177 ca3d 5b66 cdbd f7e3 69be
000003a0: adfe 2dbe e440 6fbe f25c 483d 7880 4cbc
000003b0: eff4 693d 1e2f f9bd 8818 cdbd d8cc 93bd
000003c0: dec3 0bbd 03f0 8fbd 6da0 b0bd aebf 03be
000003d0: 563b 07be a851 40be 6fd9 a1bd 0628 1bbe
000003e0: 1d4e bb3d e875 0dbe a44e c83c 6f60 3f3b
000003f0: 7b60 873c 9574 76bb d8aa 14be a8f9 2c3d
0.031063817 0.10960455 -0.18697186 -0.13754353 0.005151696 -0.15863761 -0.015217126 0.0020360562
-0.07444786 0.03805661 0.09863414 -0.42798 -0.07704427 -0.10710202 0.029549133 -0.14856504
-0.0010681032 0.17353785 -0.17419954 -0.026137594 -0.20567071 -0.18202731 -0.498386 -0.31769723
0.017797427 0.48430416 -0.31734648 -0.13424672 -0.107765384 0.032193854 -0.007929228 -0.13714775
0.17045401 0.13819262 -0.08186188 0.026121233 -0.115058914 -0.12743288 -0.02141066 -0.15091413
0.040714793 -0.09698422 -0.18755922 -0.09690986 -0.124884315 0.3070555 0.12965609 0.17703968
0.14177813 -0.35418078 0.10269943 -0.015644057 0.0584578 -0.109061025 -0.096687436 -0.12059183
-0.16857941 -0.037738986 -0.061772324 -0.24045621 -0.120141715 -0.20849696 -0.10154549 0.033506073
-0.25362796 -0.50525117 0.12630938 -0.013556183 -0.038809903 0.43240178 0.2197224 0.11822887
-0.12223664 0.123092756 -0.058124963 0.29228118 0.20965065 -0.22717357 0.16465135 -0.05287647
-0.16657133 -0.15132241 -0.0094637275 -0.079172276 0.10328521 0.22858852 -0.06016328 -0.03398
0.022815531 -0.038066264 -0.13300744 -0.011282509 -0.0057521407 0.012555378 -0.14988846 -0.03820018
0.1364383 0.27180514 -0.205874 -0.08343914 -0.0061963405 0.081776574 -0.0010691968 0.047224283
-0.15409437 0.1404568 0.24883373 0.120078474 -0.030780707 0.15922824 0.04257643 -0.010037357
-0.11045721 0.015407782 -0.0136226285 -0.017944228 0.17584361 -0.36623344 -0.09793044 -0.09874037
0.014831598 -0.023531953 -0.123219505 -0.018209612 -0.17136016 -0.49719572 0.15155219 -0.0021462643
0.048100814 0.001964856 -0.1752961 -0.008214418 -0.005640695 0.57848203 0.0319259 -0.12565161
-0.07189924 -0.1288571 -0.19171973 -0.023979671 -0.10273413 -0.08311715 -0.13795367 -0.17286114
-0.1928444 -0.11326708 -0.23657323 -0.3133048 -0.13151085 0.027550748 -0.14814344 -0.03263129
0.027386751 -0.08606892 0.3037713 0.395893 -0.13492379 -0.18269068 0.14233099 0.00049819157
0.0022168264 0.93812597 -0.38987142 -0.2979565 0.07066106 -0.38378432 0.09372292 -0.12987052
-0.09211207 -0.026946507 -0.0074194414 -0.099748135 -0.0863182 -0.20448098 -0.1694437 -0.22442117
-0.0902388 -0.28974235 -0.12635006 -0.19931489 -0.0779515 -0.0018937206 -0.062175613 -0.04666585
-0.13158198 -0.1721669 -0.11390482 0.019083677 -0.04481651 -0.17183454 -0.09754376 -0.20264967
-0.20137973 0.17126074 -0.19183806 0.020159375 0.032429907 0.030652944 0.10268348 0.09334773
-0.36210483 -0.13175303 -0.88817686 -0.26817122 -0.037699897 -0.10674743 -0.1465623 -0.08187833
0.016791489 -0.13642673 -0.11670506 -0.08060089 -0.19820243 0.07568305 -0.02499952 -0.028261509
0.014642661 -0.104327954 0.12893662 0.11813122 -0.1263493 -0.13398345 -0.13532577 -0.11314724
-0.17464198 -0.38244352 0.06605048 0.04623327 0.033611823 0.09886003 -0.100292884 -0.22840868
-0.16991682 -0.23364598 0.048916765 -0.012481801 0.057118353 -0.1216719 -0.100144446 -0.07216805
-0.03412234 -0.070282005 -0.08624349 -0.12866089 -0.13206229 -0.1878115 -0.079028 -0.15151986
0.09145758 -0.13814509 0.024451561 0.0029201766 0.016525498 -0.003760611 -0.14518297 0.04223028

lstm.weight_hh_l0 f4 [512, 128]
00000000: dadd 67bc 62e8 3b3d e1a2 0f3e 85ff 0fbc
00000010: 3ab0 773d 0b31 d8bd f553 25bc fab9 56bd
00000020: 025c dc3d d4e7 863d 7166 763b f88e d9bb
00000030: 06d9 c5bd 66b0 eabb 608a ba3c 6441 a93b
00000040: 1149 67bd 946f 21bd 0bcf 1fbd 49d2 db3d
00000050: 001b a9bc bdfd 483d c3b4 2f3c 5da1 133d
00000060: 6168 cd3c 588b 913d 44e4 a5bd 03d1 12bd
00000070: 6bf4 74bd b136 13bd dec8 21bc dfc1 24bd
00000080: 6d6c ed3d aee1 68bd 22eb 913d 48dc 2abc
00000090: 9ea9 0fbd 201a 563d 1ca1 3e3d 074b 60bd
000000a0: 6be4 a0bd 89f0 eb3b 55b6 943d de96 82bd
000000b0: 4725 953c 658b 9f3d 0ee2 88bc ad3a 09bb
000000c0: 4260 72bd 57d0 bcbb 8e7e e7bd 5041 25bd
000000d0: fef9 db3d 1210 3cbd f564 8c3b 789b 373b
000000e0: 2431 b2bd 642f 4ebd 8fba 79bd 25cd cbbb
000000f0: c88d 5b3d 4394 86bd 757c 493d db10 b03d
00000100: 49d1 26bd d02d bf3d 3daa 03bc 5a4f 6abb
00000110: 2e4c 88bc 7080 afbd 21f9 5a3d d8d8 923d
00000120: 911a cbbb dd9a a83d 94ea 2a3d dd64 553d
00000130: 5392 abbc 353a ecbd d4f3 b1bd e2b2 7abd
00000140: fc74 923d aca4 91bd 8668 17bd b4af eb3c
00000150: 1dfe 8abd 3994 933d 9402 2dbe f9b2 f13c
00000160: 86ae 9abd 85d2 ad3d 5e57 ff3b 9d33 2fbd
00000170: 547f 8fbd d22f 72bd 0236 cabd 647b ad3d
00000180: 1509 133c d614 a83d 1c77 443e 233a c8bd
00000190: 60ea 1ebd 544c 103d 5a7e 6ebc 1b8c 12bc
000001a0: 221f 32bd 16ed dc3d 2b5d 46bd 6136 13bd
000001b0: 8696 fb3b 43ee afbb eec7 073d b7ff aebd
000001c0: 5166 6cbe 5258 a3bc 8cae 10bd fe6a bcbd
000001d0: 6501 ab3d d7d7 ab3d 7687 a0ba 4143 c53b
000001e0: aee0 10be dce8 373d 405e 28bd bfc6 86bd
000001f0: daac 9b3d 603d 6e3c c0ee b73d 2065 c3bd
00000200: 0bc7 5dbb 956c 513d 8041 bdbd 8892 5dbd
00000210: 3a7e db3d d8cb 883b d35b bd3d 7fd2 dfbc
00000220: dce2 073e 3129 c33d f88f 11bd 5cd9 6f3d
00000230: 98a2 16bd 49de 23bd a4d5 b5bd d8c5 22bd
00000240: b23f f93d e17b fe3c 21f8 46bd 6e4c 2ebd
00000250: 970b 7dbd 2cef 493d 6d02 2d3d dcdb 723d
00000260: ccf3 e83c 774f ec3d 037d 1abe de7e 853c
00000270: 3eeb cf3c 571e 683d 529c 72bd 124e bbbc
00000280: 5006 99bc c9e5 32bd 9a99 98bd 1540 7c3d
00000290: 99ad b93c 71c1 713b d832 e53a 4e59 cdbd
000002a0: 1a1f 8dbe f222 1f3d 9393 8a3c 70f7 febc
000002b0: 63ea b4bc b56d f1bc 2b2a de3c f6ae 913d
000002c0: 47a5 0c3e bdfd b53a c2b4 cbbc 6a82 6a3d
000002d0: 6f0b 4dbd c4e6 73bc 5e99 883d d1ec 98bb
000002e0: e82c 2e3a a36d 81bc 0bcd 9ebd 4222 03bc
000002f0: 38be a33d e35e 8fbd e1fe a43c c560 1abd
00000300: ba83 bfbd 8965 4a3d e916 4abe bad9 18bd
00000310: 87cb 813d e625 283d 300c 8bbd 2d13 53b9
00000320: f020 9bbd 468b 9e3d 6cb9 97bc 309d a7bd
00000330: 4b42 d7bc 2719 aebd 5d7d 50be 8b04 cc3a
00000340: cda0 fdbc d298 5c3e 294e 9d3d 58e8 70bd
00000350: 3010 2b3d afb0 8fbd fe52 0abe 6e18 283d
00000360: 4138 4e3b e857 31bd 8ed4 5b3c 5ffa 4f3d
00000370: d05c 68bd be58 043e 3c1c 86bc ad25 f03d
00000380: b19f 00bd 1c4b 1b3b 3f07 b6bd 73dd 5abd
00000390: ba9b 4bbd cdff a5bb 3a2b b9bc 3d84 d83d
000003a0: 1df0 22be 6c8e 813d f0b7 acbb f763 5ebd
000003b0: 6326 0a3c ad4d b2bd 894e 683d 130b 75bd
000003c0: 5598 b7bd c489 aa3d 6110 e43d 4915 26bd
000003d0: 8e10 75bd b82b e03d c78b a5bc 21bc 7dbd
000003e0: b6d1 9fbc 2ebe c13d 8335 193d d6c2 0dbd
000003f0: 10f6 193e 46db 69bb 5368 073e 5b4e 9f3d
-0.014152015 0.045875914 0.14026977 -0.008788948 0.060470797 -0.10556229 -0.010090818 -0.052423455
0.107597366 0.065871865 0.003759768 -0.0066393577 -0.096605346 -0.0071621416 0.02277106 0.005165266
-0.056466166 -0.03941305 -0.03901581 0.10733468 -0.020642757 0.04907011 0.010724249 0.03604256
0.025074186 0.07106656 -0.08100179 -0.03584386 -0.059803408 -0.03594083 -0.009874551 -0.040223952
0.11592946 -0.05685585 0.07124926 -0.010428496 -0.03507387 0.05227101 0.046540365 -0.05475905
-0.07856067 0.007200305 0.072613396 -0.06376432 0.018206252 0.07790259 -0.016709354 -0.0020939515
-0.05917383 -0.0057621407 -0.11303435 -0.04034549 0.107410416 -0.045913763 0.004284496 0.002801625
-0.08700779 -0.050338164 -0.06096893 -0.0062195235 0.05360201 -0.065712474 0.049190957 0.08596965
-0.040726934 0.0933491 -0.008036193 -0.0035752864 -0.016637888 -0.085694194 0.053460244 0.07170266
-0.0061982353 0.08232663 0.041727617 0.052098144 -0.020943796 -0.115345396 -0.08689085 -0.061205752
0.07151219 -0.07111487 -0.036964916 0.028770305 -0.067867495 0.072060056 -0.16895515 0.029504286
-0.07552819 0.08487419 0.0077923974 -0.04277383 -0.07006708 -0.059127636 -0.098735824 0.084708005
0.008974333 0.08207099 0.19186062 -0.09776714 -0.038797736 0.035229042 -0.014556492 -0.008944537
-0.04348672 0.10787408 -0.048428696 -0.03594053 0.007677856 -0.005368979 0.033149652 -0.085448675
-0.23085906 -0.019939575 -0.03532271 -0.09200095 0.08349875 0.083907776 -0.0012247402 0.00601998
-0.14148208 0.044899806 -0.04110551 -0.065808766 0.07601328 0.014541 0.08981085 -0.095407724
-0.0033840563 0.051128943 -0.09241009 -0.05409482 0.10717435 0.0041746907 0.0924603 -0.027322052
0.13270134 0.09529341 -0.03553769 0.0585569 -0.036776155 -0.04000691 -0.08878639 -0.03973946
0.12170352 0.03106493 -0.048576478 -0.042553358 -0.06177863 0.049300358 0.04223864 0.059291705
0.028436564 0.11538594 -0.1508675 0.016295847 0.025380727 0.05666956 -0.05923111 -0.022864375
-0.018679768 -0.04367617 -0.07451172 0.06158455 0.022665786 0.0036888982 0.0017486466 -0.10026799
-0.2756279 0.038851686 0.016916072 -0.031123847 -0.02208442 -0.029471258 0.027119717 0.07113449
0.13734923 0.0013884824 -0.024866465 0.05725328 -0.050059732 -0.014886562 0.066698775 -0.0046669026
0.0006644265 -0.01579935 -0.077539526 -0.008003773 0.07995266 -0.0700052 0.020141067 -0.037689943
-0.09351297 0.049413238 -0.19735302 -0.037317015 0.06337648 0.041051768 -0.06789434 -0.00020129672
-0.07574642 0.07741408 -0.018521033 -0.08184278 -0.026276728 -0.08500891 -0.20360322 0.0015565319
-0.030960465 0.21542671 0.076809235 -0.05881533 0.041763484 -0.070161216 -0.13508222 0.041038923
0.0031466635 -0.043296725 0.013417376 0.05077588 -0.056729138 0.12924477 -0.016370885 0.11725936
-0.031402294 0.0023695892 -0.08888101 -0.053433847 -0.04970906 -0.005065894 -0.02260362 0.105720975
-0.15911908 0.06325993 -0.0052709505 -0.054294553 0.008432004 -0.08706222 0.056715522 -0.059825014
-0.08964602 0.08327058 0.111359365 -0.040547643 -0.05983024 0.10945839 -0.020208253 -0.06194699
-0.019509178 0.09460102 0.03740455 -0.03460964 0.15035272 -0.0035683676 0.1322339 0.07778617

lstm.bias_ih_l0 f4 [512]
00000000: efad 99bd e103 26be 2966 c63c d539 11be
00000010: 7c5b 063d ed5d 2bbc 4ff8 153e 9e96 bcbd
00000020: d9c9 0d3e e594 5cbc 12a9 09be ce63 51bd
00000030: 2b25 1a3d bdb6 ec3c 9cff b1bd 53ae cfbd
00000040: e51c e1bc 880d 4d3d d182 9a3d 3b2a 9aba
00000050: bff7 10be fee1 9fbc f410 0cbe 2da9 77bd
00000060: 1721 d13c 4399 bfbd 0b39 babd ef2d 7f3c
00000070: 99fc 39bd 32e7 abbd d2ab 35bb fa49 a73d
00000080: fec8 803b 0c45 25be a01b 51bb 96a6 adbd
00000090: 6a4f 04be f4ca 1dbe c2a2 52bd 288f adbc
000000a0: ff9b a4bd 0244 12bd d297 dcbc 18e0 d5bd
000000b0: 65d5 c4bd 6ba8 a5bd 87fd 15be 9c06 cdbc
000000c0: 8161 fdbd cff6 3b3c cb20 35bd 0bfe 63bd
000000d0: 8639 30bc de84 a6bd d1d9 f73d 7139 08be
000000e0: 35a4 9abd 2554 0cbe 003c 1ebd 284b 96bb
000000f0: 4c38 9fbc 2dee 06be 7984 0cbd 37e6 e13c
00000100: 3711 87bd ad56 15bc 7078 63bd c70f cbbc
00000110: 59f2 1ebe bc65 f5bc 9d6c 063c d443 01bd
00000120: 1dfa bfbd c1c5 b83d 9f42 8b3c f875 d1bc
00000130: 86da a7bd c691 92bc dc13 263e e6c8 4bbd
00000140: ff94 17be f4c7 533c 3752 23bd ae15 a13d
00000150: c4e4 1abd fc6d ffbd 287c e4bc f05c aabd
00000160: d0b8 f13c 8732 22be 0dc1 1dbc f080 1abe
00000170: 3ad7 7bbd b1b0 9abd 02e3 1b3d 674b ca3c
00000180: 4b70 573a 2d54 94bc 49f7 953d 2cdf acbc
00000190: 1134 a7bc 30be 0ebe af50 95bd 4220 bcbc
000001a0: d1ab 12be 2cb6 6abc 7860 123d a7d6 713d
000001b0: e599 e73c d8d5 0fbd 1cc3 773c ef97 84bc
000001c0: dcb4 7dbc c85d 6f3d 005b 61bd 08a3 f9bc
000001d0: c3db 693d 88b5 e83c ddf7 05bc 68c5 21be
000001e0: c397 33bc 0de0 32bd cf54 223e 9d28 d4bd
000001f0: 842a a2be f661 1fbd 5d46 d83d 0977 14bd
00000200: 1551 a1bd c490 07bd f824 b73e ad53 08be
00000210: 0e42 95bd aa8b f73d 7070 9abd 6ec7 06ba
00000220: b905 cabd a1da 2d3d 3b7a 95bc 743a cdbb
00000230: a66f 763e 864f 78bd 9fc0 08bc 419a d6bc
00000240: 57ca 8fbd 3c69 843d 2932 983e 6de6 6a3d
00000250: 25f8 a0bd 7253 dfbd 94ae a3bc 3e62 8abd
00000260: adbb 8b3d abaa f8bc 6229 383c 7cce c7bd
00000270: 1290 2abd f7c3 42bd 92ab ae3b 5f9d 9e3d
00000280: be11 723d 6dff 0cbe 7309 953c c0cc 68bd
00000290: 8c74 443c a9c4 04bd 1be9 d0bd 0e54 c6bd
000002a0: c800 c03d cf6f 9b3d 1470 eabb de92 cbbd
000002b0: ac72 43bb 84e7 e6bd 187f eebb df8a bb3c
000002c0: 10ab 193e 8638 f5bd c8b4 d53d 1e97 573d
000002d0: 434a e8bc 8616 953c 80a3 07be e648 283c
000002e0: ac1d c63c fd9b d43b 7112 3c3d f0d8 0a3c
000002f0: de74 f43c ab98 5dbd 91b2 b1bd 3f21 8ebd
00000300: 36f5 2c3d b447 efbc a57c 733d 4e41 a03d
00000310: 4cf4 babd 6cd9 c3bd d7b3 80bd 7ecc db3c
00000320: 8f5e 913d d32f 123e 763a 2d3c a56b 1d3e
00000330: bbec cc3c 4abe f93c 706f 053c d949 bcbd
00000340: 570c 95bd 1cf0 b33d 6714 533c d7c8 1b3e
00000350: aed7 a0bc c865 cd3c 2ff0 3f3e 1543 ec3d
00000360: 237c d8bc 4240 473d 0631 5ebd ba52 86bc
00000370: d895 8b3c 4fba 55bc 3d63 0b3e 97ae dc3d
00000380: 5616 943d 6eb4 e3bc 3af0 703e 0657 6bbd
00000390: 5e11 80bd c713 ecbc ba67 00be 7124 b1bd
000003a0: c5f7 1b3d 3863 1fbc a388 f5bc 494d 8ebd
000003b0: 17bc c3bd dc0f 3dbd 07fd 743d 1aa9 eabd
000003c0: ef36 523e b25e 1b3e e825 973c fe63 51bd
000003d0: ecea 5cbd 62ec acbc 0de2 493d 5e67 053f
000003e0: b709 c5bd 1541 0fbd 0b94 bb3d d3d4 77bc
000003f0: 5706 1f3e 402e a6bd 356b 573e e312 a2bd
-0.07503878 -0.16212417 0.024218636 -0.14182217 0.03280209 -0.010459405 0.14645503 -0.092084154
0.1384653 -0.013463234 -0.13443401 -0.05112057 0.037633102 0.02889573 -0.08691332 -0.101406716
-0.027479598 0.050061733 0.075444825 -0.0011761853 -0.14157008 -0.019516941 -0.13678342 -0.060464073
0.025528474 -0.09355404 -0.09092911 0.015574916 -0.04540691 -0.083937064 -0.002772082 0.08168407
0.00393021 -0.1613962 -0.0031907335 -0.08479039 -0.12920919 -0.15409452 -0.05142475 -0.021186426
-0.080375664 -0.03570939 -0.026927862 -0.10443133 -0.09611014 -0.08088764 -0.14647494 -0.025027566
-0.12372113 0.011472418 -0.044220727 -0.055662196 -0.010755902 -0.08130811 0.12102092 -0.13303162
-0.07550851 -0.13703974 -0.03863144 -0.004586596 -0.019436024 -0.13176794 -0.034306023 0.027575595
-0.0659508 -0.009114903 -0.05553478 -0.024787797 -0.15522136 -0.029955737 0.008204606 -0.031558827
-0.09373877 0.090220936 0.01699954 -0.025568947 -0.08195977 -0.017891776 0.16218513 -0.04975214
-0.14802931 0.0129260905 -0.039873328 0.07865463 -0.037815824 -0.1247215 -0.027891234 -0.08318508
0.02950707 -0.15839587 -0.009628546 -0.15088248 -0.061484553 -0.075532325 0.03805829 0.024694158
0.0008218332 -0.018106544 0.073225565 -0.02110251 -0.02041057 -0.13939738 -0.0729078 -0.0229646
-0.14323355 -0.01432566 0.03573653 0.0590426 0.028271625 -0.035116047 0.015122201 -0.016185729
-0.015485015 0.058439046 -0.055018425 -0.030473247 0.057094347 0.028406873 -0.008176771 -0.15797961
-0.010961476 -0.043670703 0.15852664 -0.10359309 -0.31673062 -0.038911782 0.10560296 -0.036246333
-0.07876793 -0.033097044 0.35770392 -0.1331317 -0.072879896 0.12087186 -0.07540977 -0.00051414117
-0.09864373 0.04244483 -0.01824676 -0.0062630717 0.24066028 -0.060622714 -0.008346706 -0.0261966
-0.07021015 0.06465384 0.2972577 0.057348657 -0.0785983 -0.10904588 -0.019980706 -0.067570195
0.06822906 -0.030354818 0.011240335 -0.09756181 -0.041641302 -0.047550168 0.0053305114 0.0774486
0.05909895 -0.13769312 0.018192982 -0.05683589 0.011990678 -0.032414112 -0.10200711 -0.09684001
0.09375149 0.07589685 -0.007154474 -0.09940122 -0.0029822988 -0.11274627 -0.0072783343 0.022893367
0.15006661 -0.119736716 0.10434872 0.05263435 -0.028355723 0.018199217 -0.13245964 0.010271287
0.02418407 0.006488322 0.045916025 0.0084745735 0.029840883 -0.054100674 -0.08676637 -0.06939935
0.04222604 -0.029208995 0.059445042 0.07824956 -0.09128627 -0.09562954 -0.06284302 0.026830908
0.07098114 0.14276056 0.01057302 0.15373094 0.025015226 0.030486245 0.008144245 -0.09193773
-0.07277744 0.087860316 0.012883282 0.15213333 -0.019634094 0.025072947 0.18743967 0.115362324
-0.02642638 0.048645265 -0.05424597 -0.016396869 0.017039225 -0.013044908 0.13612075 0.10775488
0.07230823 -0.027795997 0.23529139 -0.05745604 -0.062533125 -0.028818024 -0.12539569 -0.08649529
0.03807809 -0.009728245 -0.02997238 -0.06948335 -0.0955736 -0.046157703 0.05981162 -0.11458035
0.20528768 0.15172842 0.018450692 -0.05112075 -0.053934976 -0.02110881 0.049287844 0.5211085
-0.096209936 -0.034974176 0.09159096 -0.015126425 0.15529762 -0.0811429 0.2103699 -0.079137586

lstm.bias_hh_l0 f4 [512]
00000000: 1100 8539 acbd 28bc 14fe 583d 1470 babd
00000010: 2169 713b e9d1 57bd c9e6 85bc 9e86 f2bd
00000020: 6927 b83d f1bb 65bd d1ab 0bbe effa c1bd
00000030: 8ebd 8a3d dfbb f5bd 6819 45be 19d6 d33b
00000040: 7711 ccbd 9a63 723d 9197 bb3d ac10 2ebd
00000050: 901e d0bd f070 e4bd bc13 eb3b 41f2 f83c
00000060: daca e23d d38f f4bc 7f9a 54bd 557d 65bd
00000070: efe8 72bc 6a6e 723c 356d a5bd 24aa 87bd
00000080: f06f 153d c11d c1bd 5901 adbd 8ec5 a4bd
00000090: ed86 15be 9447 efbd 854a ba3c 488c 92bd
000000a0: 4f64 d2bb ea71 8e3c 541c a2bd 3067 b1bd
000000b0: 0570 eabd b1d9 b1bd 08d6 3cbd f66d aabc
000000c0: 6e51 0cbe a72e e2bd a47b 95bd a64a 94bb
000000d0: 5625 33bd 71bc 6cbe 4a58 0d3e a14b 87bc
000000e0: ce93 13bc 86d6 f0bd de63 18bd 776b 753d
000000f0: 8468 03be 982b cdbd 1088 20bd 0538 2dbd
00000100: e4ee c1bc 5f86 81bd 897f afbc a272 0bbe
00000110: 3ac1 92bd db31 0ebd 00f3 c5bd 5cc1 0b3d
00000120: 09ac 83bd c301 8a3d 7b24 d1bc d61e d1bd
00000130: 9cde 233d d7b8 fabd 87bd 923d a931 e53a
00000140: 0a4e b9bb 096e bcbc 8597 1cbd 0441 5e3d
00000150: e722 acbd f840 19be 1e0b ea3c 5e1c d4bd
00000160: e5ee edbd 7251 90bd 52ab 03bd 14df aebd
00000170: eba2 afbd 0f89 3ebd 7422 dfbd f9af 03be
00000180: 6121 2f3d 9e4b ebbc 5f1d 9e3d c7fe b63d
00000190: d790 a03c a069 c9bd 0128 47bd 6cdd e1bc
000001a0: 0af7 1a3c ea07 773d 86d3 e43c eb23 02bd
000001b0: 99ad a5bd 72a3 2ebe 65a5 f6bd 3978 233c
000001c0: 51bc 913d 2051 273d fa6f 12bc 780c a5bb
000001d0: 31a2 73bd afcf 963c 2d8a cabd c567 90be
000001e0: 3dd5 593d 9594 5bbd e130 0c3e 0598 27bd
000001f0: 6d32 82be 8c73 ffbd 4247 e33b 3145 d0bd
00000200: e39a 563d c88b f93c a03f 683e 86c4 563c
00000210: cbba 37bd e941 393e 2611 3cbd 75c0 4c3d
00000220: 55ed dfbd 36e1 6cbd fd2e c9bc 7364 f9bd
00000230: 4c61 2b3e 074d e53c 07c9 353d 93c0 6fbc
00000240: faff 103d e38e 393e 41b1 3c3e 051b 19bd
00000250: ea7a fbbd 7925 0abe e812 8ebd 9cf2 2cbd
00000260: 58ea 973c d26f 1abd 900a 8c3c e396 4bbb
00000270: 1c21 afb9 7b32 8d3d 8221 debd d665 f83d
00000280: f524 4dbd 712d 22be 9123 d73c eabd 5e3d
00000290: 25e7 9cbd e4c6 b73b 4f46 c6bd c2c1 06be
000002a0: c519 3a3e f902 053d 95e8 a4bd f2a3 843c
000002b0: 8737 09be ce32 fbbc 62f0 c3bd d27b a7bd
000002c0: 2ad1 1d3e 300f b3bd b32c 4c3e be7c 55bd
000002d0: 9cde f7bd 2ac4 88bc e7f9 dabd d9a8 0d3d
000002e0: bc27 4b3d 765e f2bc 0df1 6ebd 475b 323d
000002f0: eae7 8cbd 4d30 003c 8ff2 453d fb18 ccbd
00000300: f579 61bd 7168 fd3c fe6f 7e3d 6dfa 35bd
00000310: 3b55 42bc 9472 b8bc ebd7 a2bd 409e bfbd
00000320: 5e76 93bd 240f b83d b92a 9a3c 00e7 f33c
00000330: fd38 66bd 2553 a4bd 2854 7abc 8d45 943b
00000340: a3ca eeb9 d795 0b3e b819 cfbd a4a3 863e
00000350: 77fd a23d 06bc 44bd 650e f73d aebf 0a3e
00000360: 803f 383b cd22 9e3d 1006 7b3b ec8a b7bd
00000370: 6322 adbd fd5a 1bbd 0640 073e b775 043e
00000380: c01b 983d b43e d3bc 0a80 303e da9d 8bbd
00000390: 0a9d abbd f3d9 bdbd a5cb 1fbc a5c6 513b
000003a0: 4e19 da3c f1b8 703d b544 53bd 5257 883d
000003b0: 377a 03be 770c bebd e035 b2bd 2c9a dfbd
000003c0: 2e91 873e 4869 323e 88cb 4c3d fae0 7cbd
000003d0: a985 a7bc a481 c63b 78c5 e1bd ef27 b53e
000003e0: 4d7e 8f3d 921a bb3d 4bd0 4e3d f3a5 3c3d
000003f0: a3dd 173e 3e91 b4bd dc20 873e 33d0 5a3b
0.00025367786 -0.010299128 0.052976683 -0.091034085 0.0036836343 -0.05269042 -0.016345399 -0.118420824
0.08991892 -0.056087438 -0.13639762 -0.0947169 0.06774436 -0.11998724 -0.19247973 0.0064647314
-0.09964269 0.05917702 0.091597684 -0.04249637 -0.10162079 -0.111543536 0.0071739834 0.030388953
0.11073847 -0.029853737 -0.05190515 -0.05602773 -0.0148260435 0.014796833 -0.0807747 -0.066242486
0.036483705 -0.09429503 -0.08447523 -0.08045493 -0.14602251 -0.11683574 0.022740612 -0.07155663
-0.006420649 0.017388303 -0.079155594 -0.086622596 -0.11447147 -0.086840995 -0.046102554 -0.020804387
-0.13702938 -0.110440545 -0.07298973 -0.0045255003 -0.04373678 -0.2311876 0.13803211 -0.016515555
-0.009007407 -0.11759667 -0.037204616 0.05991694 -0.12832838 -0.100180805 -0.03919226 -0.042289753
-0.023673482 -0.063244574 -0.021423118 -0.13617948 -0.07165761 -0.034715515 -0.09665489 0.03411995
-0.064292975 0.06738617 -0.02553009 -0.102109596 0.04000722 -0.12242287 0.07165056 0.0017486113
-0.005655055 -0.023001688 -0.038230438 0.054261222 -0.084050946 -0.1496619 0.028569754 -0.10356973
-0.11617831 -0.070467845 -0.032145806 -0.085386425 -0.08575996 -0.046517428 -0.10895243 -0.12860097
0.042756442 -0.02872258 0.07720446 0.08935314 0.019600315 -0.098345995 -0.048622135 -0.027571402
0.009458313 0.06031028 0.027932893 -0.031772535 -0.08089752 -0.17054537 -0.12043265 0.009977394
0.07115997 0.04084885 -0.00893783 -0.005036887 -0.05948085 0.018409578 -0.09889636 -0.2820417
0.053181875 -0.053608496 0.13690521 -0.04091646 -0.25429097 -0.12473211 0.006935985 -0.10169447
0.052393805 0.03046216 0.22680521 0.013108378 -0.044855874 0.18091549 -0.04591479 0.04998823
-0.10933939 -0.057831965 -0.024558539 -0.12177362 0.16736335 0.027990831 0.044381168 -0.014633316
0.03540037 0.18120913 0.18426992 -0.037379283 -0.12279303 -0.13490857 -0.069372 -0.042223558
0.018544361 -0.037704296 0.01709488 -0.0031065277 -0.0003340327 0.06894394 -0.10846235 0.12128799
-0.050084073 -0.15837647 0.026262077 0.054380335 -0.07661275 0.0056084264 -0.09681379 -0.1315985
0.18173893 0.032473538 -0.08052174 0.016191456 -0.13400088 -0.030663874 -0.09567334 -0.08177914
0.15411821 -0.08743131 0.19938926 -0.052120917 -0.12103006 -0.0166951 -0.10692196 0.034584854
0.04959844 -0.029586058 -0.058335353 0.04354408 -0.068801716 0.007824016 0.048327025 -0.09965702
-0.055047948 0.03093359 0.062118523 -0.044428278 -0.011861141 -0.022515573 -0.07951339 -0.09356356
-0.07200311 0.08987263 0.0188192 0.029773235 -0.056206692 -0.08023671 -0.0152788535 0.0045248927
-0.00045545874 0.13631378 -0.10112327 0.26296723 0.07958501 -0.048030876 0.120632924 0.13549682
0.002811402 0.077214815 0.0038303174 -0.08962044 -0.08453824 -0.03792857 0.13208017 0.1293553
0.07427168 -0.025786735 0.17236343 -0.06817217 -0.08379562 -0.09270086 -0.0097531425 0.003200927
0.026623394 0.058770124 -0.051579196 0.0665728 -0.1283959 -0.09279721 -0.08701682 -0.10918078
0.2647795 0.17422974 0.04999879 -0.061737992 -0.020449476 0.006057935 -0.11023992 0.3538203
0.07006512 0.09135927 0.050491612 0.0460567 0.14830641 -0.08816765 0.26392257 0.0033388257

lstm.weight_ih_l1 f4 [512, 128]
00000000: fad7 95bc cb6f 66bb 0b46 16bd ddb5 65bd
00000010: 7212 0dbd 1bbb 363d 662d a5bd aaa2 f1bc
00000020: 54ca 5bbd cc1b bfbd 0bb2 8bbd 290c b7bc
00000030: f77f e0bb 5902 68bd 8795 043d 1a1f 743d
00000040: 15d6 adbd 446a 63bd b44e 033d fbd0 4dbd
00000050: 8fa9 943c 0510 2abb aabd 9bbd f615 563d
00000060: edd1 afbd 8623 b93c b017 2abe 729b 9e3d
00000070: 2c11 babd ed66 81bd 3837 da3b e97a 7f3a
00000080: bc9b 533d d9d3 bf3d 01d1 8a3d 6b9f e23b
00000090: 889f a73d dbcd 833d a961 ae3d 7cb8 9f3c
000000a0: ea1b 8dbd 03df 983a 548d f5bd 57fa 56bc
000000b0: 5091 f93c b1e4 dbbd 294f 3e3d 47d9 073d
000000c0: d8a2 bebd fdbb 14bc d9e2 7abd 60ae a93d
000000d0: 1341 67bd b096 bb3d 5024 5b3d 70fb e63d
000000e0: 354d 3bbb 7d63 a83c 453f b9bc 9f05 5b3b
000000f0: fdb7 903d c6b9 f13c 9c95 c6bc 9dce e93d
00000100: 97af 503d 6848 2f3d eade 653d 5863 293d
00000110: 00b4 c6bc 2560 a1bc 866d 303d e621 773d
00000120: 64ee bcbd 2252 1d3c 0639 6f3d 0b91 bf3d
00000130: df16 243d 6932 bfbd 746f 07bd 1a1d 86bb
00000140: 7aa9 963d 62a5 46bd 2276 113c 6885 5bbe
00000150: 03a9 8b3d e1b2 573d d321 51bd 0151 b3bd
00000160: bc94 783d 3e76 833c 538e 4a3d 00d9 fbbc
00000170: ff1b ab3d 338b 10bd b41b 0a3d e8d7 39bc
00000180: 5e13 ca3d d3c1 20bd fc39 83bc 1e04 aa3d
00000190: d9f2 6c3d 3f72 9abc 82f8 373d 276a a1bd
000001a0: 03bf 003e bcfe af3d 38e5 a8bd 87e4 f53d
000001b0: b2a2 813d 4c89 1f3d e3c1 45bd cff4 2f3d
000001c0: c3c0 ccbc 1c9a 24bd 7c0b a6bd 130a d53d
000001d0: 09df 6bbc cb92 f23c 1273 f43d 6aa2 15be
000001e0: d4b1 8a3d bbaf b2bd bc3c c03c 9e86 513d
000001f0: 2180 823c 62f1 2a3b 228e fc3a 9bd8 6e3d
00000200: 15de ebbb ab00 3b3c 8a73 0c3e 2dbe 3eba
00000210: c521 19bd fc51 20bd b23b d53a 25be bcbd
00000220: 78ad a8bd 3c06 1ebd e622 abbc a7b9 633d
00000230: f664 45ba 9fd2 773d 5932 23bd a445 393d
00000240: fab9 dfbc b3de 153e 220d 61bd f5d5 c33d
00000250: 44d9 71bd 080e 80bd 883d 603d b281 653d
00000260: bbc1 203c 56af 653d 7f05 99be f326 0a3d
00000270: 9a15 3cbd 0645 20bd 8140 49bd efda bd3d
00000280: d49e 8fbd d0e0 9b3d 95f3 13bd 8de6 2a3d
00000290: def8 c53b 2cd0 823d 03f5 e0bc bf39 743d
000002a0: a2b3 0ebd ebaf 78bd 5dad a7bd c5ac 8d3c
000002b0: ad24 9ebd 493a 253d 10cd afbc 0519 60bc
000002c0: d937 fb3b c671 43bd 74eb 84bc c1ce debc
000002d0: b4c5 92bd 8314 f73d d06b 81bd f613 a7bc
000002e0: 1701 993d 2fa0 733d a025 8a3c 8dab 1d3e
000002f0: 4be6 11bc fea9 b13c 383b 05bd 734f 743d
00000300: 4ab2 9dba 6187 0e3d 8d48 e43d 602b 883d
00000310: 0b93 05bd f31e fd3c 2396 1e3d b116 b0bb
00000320: 87c6 e83c 6327 c7bd c849 ba3d 6185 123e
00000330: aa6b 8c3d 8049 00be 8ef6 b9bb b62c 133d
00000340: 9b5d a3bc 4917 a23d 8503 293c 608a a7bc
00000350: 8625 e2bd 68eb 353c b2a4 85be 685d 1c3d
00000360: 8a2a a93c 7e9e 13bd 11a8 763d 6fc1 8fbd
00000370: 9587 763c 7991 6cbc 4209 7e3c 84de 3a3e
00000380: 12df af3c 1d6e f23b fb7d ba3d d0fa 4bbd
00000390: b60d d93d 0a84 a13c 8965 ef3c 174c 6b3b
000003a0: c9ae ba3c 7d0e babb 2a81 88bd 30f3 52bd
000003b0: 5bc6 c93b 4e6a 3a3d b7a7 b0bc 264a 483d
000003c0: 6527 08be e5c3 003e a2a8 d33d 04cf 543c
000003d0: 47da 1ebd c074 263c 3930 963c d5a5 83bd
000003e0: 8836 6d3d eee8 9d3d 82da 68bd 83d8 5f3d
000003f0: 153d e63d 00d9 163c b4e6 213d 45e5 b13c
-0.018291462 -0.0035161849 -0.036687892 -0.05608164 -0.03444142 0.04461203 -0.080653 -0.02949651
-0.053659752 -0.09331474 -0.068210684 -0.022344666 -0.006851192 -0.056642864 0.032369163 0.059599973
-0.084880985 -0.055521265 0.03205748 -0.050248127 0.018147258 -0.002594949 -0.07604535 0.052267037
-0.08584962 0.022599947 -0.16610599 0.077444926 -0.090853065 -0.0631846 0.0066594146 0.0009745793
0.05166219 0.093665786 0.067781456 0.0069159768 0.08184725 0.06435748 0.08514721 0.019497149
-0.0689009 0.0011663142 -0.11989847 -0.013121209 0.030464798 -0.10736979 0.04646221 0.033166196
-0.09308404 -0.009078023 -0.061251495 0.082852125 -0.056458544 0.09159601 0.053501427 0.11278427
-0.0028579955 0.020555252 -0.022613177 0.0033420098 0.07066343 0.029507529 -0.024241261 0.114163615
0.050948706 0.04279366 0.05612079 0.041354507 -0.024255753 -0.019699166 0.0430732 0.060335062
-0.09225157 0.0096021015 0.05840399 0.093538366 0.040060874 -0.09335787 -0.033065274 -0.0040928246
0.07356544 -0.048497565 0.008878263 -0.21437609 0.06819346 0.052660827 -0.051057648 -0.08755685
0.06068872 0.016047593 0.049452137 -0.030743122 0.08354949 -0.035289 0.033717826 -0.01134298
0.09866975 -0.039247345 -0.01601886 0.083015665 0.057848785 -0.018853305 0.04491473 -0.07881575
0.12572865 0.085935086 -0.08246845 0.12006479 0.0632986 0.038949296 -0.048280608 0.042958077
-0.02499426 -0.040186033 -0.08107659 0.10402312 -0.014396437 0.029611012 0.119360104 -0.14612737
0.06772199 -0.08724924 0.02346646 0.05115377 0.015930237 0.0026083817 0.0019268433 0.05831204
-0.007198105 0.0114137335 0.1371595 -0.0007276263 -0.03738572 -0.039140686 0.0016268401 -0.09215955
-0.082362115 -0.038580164 -0.020890664 0.055596974 -0.0007529998 0.0605036 -0.039842937 0.04523243
-0.02731036 0.14635734 -0.054944165 0.095622934 -0.05904509 -0.06252676 0.05474618 0.05603189
0.009811814 0.056075417 -0.29887006 0.03372855 -0.04591904 -0.039128326 -0.04913378 0.09270274
-0.07012716 0.07611239 -0.03612097 0.041723777 0.00604163 0.06387362 -0.02746058 0.059625383
-0.03483928 -0.060714643 -0.08187363 0.017294297 -0.07721839 0.04033879 -0.021460086 -0.01367784
0.0076665697 -0.047715925 -0.016225554 -0.027198197 -0.07166615 0.12064459 -0.06319392 -0.02039526
0.07470911 0.059478935 0.016863644 0.15397473 -0.008905004 0.021687504 -0.03252718 0.05964608
-0.0012031284 0.034797076 0.111466505 0.06648898 -0.032610934 0.030898547 0.0387174 -0.005373799
0.028414978 -0.09724309 0.09096104 0.14308693 0.06856473 -0.12528038 -0.0056751436 0.03593131
-0.019942096 0.079145975 0.0103157805 -0.020451725 -0.11042313 0.0111034885 -0.26102215 0.038175017
0.020650167 -0.03603982 0.060218874 -0.070193164 0.015046974 -0.01443898 0.015505137 0.18248945
0.021468673 0.0073983804 0.0910606 -0.04979974 0.10598318 0.019716281 0.02922322 0.0035903507
0.022788422 -0.0056779967 -0.06665261 -0.051501453 0.006157679 0.045511536 -0.021564348 0.04889884
-0.13296278 0.12574728 0.103348985 0.0129888095 -0.038782384 0.010159671 0.018333541 -0.06428114
0.057913333 0.077104434 -0.05684901 0.05464984 0.11242119 0.00920701 0.039526656 0.02171577

lstm.weight_hh_l1 f4 [512, 128]
00000000: 1d98 d6bd ba12 87bd 7760 bcbc 13a7 073d
00000010: 032a 39bd ea12 163d 07dc 1abe 5e33 553d
00000020: 19d3 08be dc8b 0dbe bcaf 853c cf0f f5bd
00000030: 59d6 afbd 23e9 fabd 8d7d 05bd 24d3 45bd
00000040: 27f3 aabd b489 203d 130c 81bd adf2 ac3d
00000050: 3a4e 0d3e 123e a13d ce05 b8bd e9eb bf3c
00000060: 2b89 0f3d 88ae fdbd fa9d 91bd a994 01be
00000070: 58e3 bbbb b726 603d a6d6 ed3c 5b0a fdbc
00000080: 707f e33c 0d53 11bd 0fe4 8bbb 9ff5 d9bc
00000090: 774a ea3a b143 a3bb 3df3 05ba 7f50 babd
000000a0: 7be6 ac3c aafe 0f3d e524 f63d 6750 b93d
000000b0: 8d21 cebb 7adc 79bd d68e 64bc 0583 d43d
000000c0: 8a36 bd3d 2dc5 cc3d a224 303d 3234 203c
000000d0: cf6c 893d c494 003e f085 073d 58d4 aabd
000000e0: 5161 663d 8500 df3d 82ac a93d 6753 06be
000000f0: 307a 49bd 0749 043e da72 f9bd f201 123d
00000100: 42bd 1fbd b901 cd3c 1952 ca3c 0ea1 803d
00000110: af8b 87bd 15ac 50bd d877 99bd 89cb d33d
00000120: d585 7cbd 16f3 b83d 675b 4a3d 292a 81bd
00000130: 5447 d53d 7cc7 103e d69b 8e3d 884c c1bd
00000140: d43e 03bd 7067 78bd 6db2 fe3d 81ef a43d
00000150: fd47 42bd fbce 53bd da42 dcbc 0218 b83d
00000160: 7eb7 d8bd cf0b 33bd 33c8 f03d cfdf 963d
00000170: 6148 7ebd b91b 4bbc 7d79 0d3c 9df6 5ebd
00000180: 1573 263e 3bf6 e03b 198b d5bc 5f1d fbbc
00000190: bf4f e3bd 1953 173e 01f5 e03c 7e30 a73d
000001a0: 7002 08bd 9cfa fc3c 3e39 263d 3160 d4bc
000001b0: cebf d1bc d6a8 a8bd 7058 ef3b 0fe4 d5bd
000001c0: c5f6 f33d 11ef 08bb 5c51 ffbc 33d5 c83c
000001d0: e706 95bd fef6 cebc 9960 c6bd ce8e 4c3d
000001e0: bb91 b8bd a9e8 87bc 8686 143d f76d 773c
000001f0: 39d2 053e 2627 98bc 64b5 263e 1623 a73c
00000200: 5105 8cbd 77df b0bd 7b5e 0abe c5e9 9b3a
00000210: 6408 81bc 39bd e83d d2fa 31bd c9d2 5bbd
00000220: b819 a3bc d567 823d 062a 313c cf1e 93bd
00000230: 4726 a8bd bde2 59bd 1cca e03c f2c9 8bbd
00000240: 61ac 7d3c b71b 22bd 8fc4 9c3c cf31 97bb
00000250: 59a9 a33c ae3a dbbc 73ea 1ebd d2f4 f3bd
00000260: 6bd2 4bbd 941f bebd 715d ab3d 5636 403d
00000270: 541e d63d a362 973d 6a7e 2cbd 1870 533c
00000280: 7601 05bd 4331 55bd dbc7 a0bd 1aa9 533c
00000290: 0fb4 26ba 9d91 1cbd dab4 18bd c944 b5bd
000002a0: e480 503d ca92 1b3d 5d2b fa3d f595 c23c
000002b0: adf6 90bc e429 8d3d bb49 0d3e 9583 fa3c
000002c0: f0a5 953a 892e c8bb a54b 1dbe 0be2 18bc
000002d0: e368 e93d 7621 2c3d d78c 61bd cc80 3cbd
000002e0: 3fa3 d5bb 9479 d33d 1aad 333c 72eb 28bc
000002f0: c5a7 dcbc 03e8 6b3d c2f7 0fbe 7ddb dc3d
00000300: 868b 3ebc 1436 9e3d d249 d9bd 45b9 013d
00000310: 43be a8bd 161c 3d3d 4101 6fbd 6a9e 983d
00000320: 45ee 63bd a3cc e23c f2ed d73d b397 45bd
00000330: 37d6 193d aef6 bebb 86ce 4f3c e86f cabd
00000340: 75f4 abbd 14cc a5bc 82a1 8f3d 8af3 33bc
00000350: a985 3fbd d2e2 fa3b 45fc efbc 0a1f 13bc
00000360: 3083 c6ba dbea 0abd 7d2b 1e3d 1f5a ecbc
00000370: 7a6b a1bd c411 053c 7fb6 a2bc e962 5fbd
00000380: 3c6f 1c3e 013f 5fbc cc83 3bbd 0c77 803d
00000390: 4e5c 12be 1ccc bb3d 3892 0abe cb7d 223d
000003a0: 6e94 afbc 9c2f bdbc 469e 9e3d 38e3 afbd
000003b0: b160 393c 7533 6bbd 54dc 073e 9504 90bd
000003c0: c6ad c03d 4464 0cbe 1f63 ca3d 93f8 933d
000003d0: 0a41 bf3b d50a 6e3d 9533 4bbd aecd 6fbd
000003e0: 1af5 90bd 7f12 81bd d526 c23c 487e d33c
000003f0: a1c2 193d b0a6 90bd 433d bd3d 5148 e33d
-0.10478232 -0.06595369 -0.022995217 0.03311832 -0.04520608 0.03663913 -0.15122996 0.05205094
-0.13361777 -0.13822883 0.016319148 -0.11965906 -0.085858054 -0.122514986 -0.032590438 -0.048297063
-0.08347159 0.039193824 -0.06301131 0.08444724 0.13799372 0.07873167 -0.08985482 0.02342792
0.035042923 -0.12386805 -0.0711021 -0.12654366 -0.0057338886 0.05472442 0.029033016 -0.030888727
0.027770728 -0.035479594 -0.00426913 -0.02660638 0.0017874975 -0.0049824347 -0.00051097927 -0.09097385
0.021105995 0.035154976 0.12018756 0.09048539 -0.0062906207 -0.06100128 -0.01395007 0.103765525
0.09238918 0.09998546 0.043003686 0.009778069 0.06710207 0.1255675 0.033086717 -0.083412826
0.056245152 0.10888771 0.082848564 -0.13117753 -0.049188793 0.12918483 -0.12180109 0.035646386
-0.03899885 0.025025235 0.02469735 0.06280719 -0.066184394 -0.05094536 -0.074935615 0.103415556
-0.06165107 0.0903074 0.049403574 -0.063068695 0.104139954 0.14138597 0.06963317 -0.09438425
-0.03204234 -0.06064552 0.12436376 0.08053494 -0.047431935 -0.051711064 -0.026887346 0.08988954
-0.10581873 -0.043712433 0.11756935 0.07366907 -0.062080745 -0.012396746 0.008634922 -0.054434408
0.16254838 0.0068652905 -0.026067303 -0.030653654 -0.11099195 0.14777793 0.027460577 0.08163546
-0.03320545 0.030881219 0.040581934 -0.025924774 -0.025604155 -0.08235328 0.0073042437 -0.10443889
0.11912302 -0.0020894448 -0.031166725 0.024515724 -0.07276707 -0.02526426 -0.09686393 0.049940877
-0.09012171 -0.016590433 0.036261104 0.015101901 0.13068475 -0.018573355 0.16280133 0.020402472
-0.068369515 -0.086363725 -0.13512604 0.001189523 -0.015751071 0.11364216 -0.04345209 -0.053667817
-0.019909725 0.06367461 0.010813242 -0.07183611 -0.08210426 -0.05319475 0.027440123 -0.068256274
0.015482993 -0.039577212 0.019136695 -0.004614092 0.019978212 -0.02676138 -0.038797807 -0.1191193
-0.049761217 -0.09283367 0.08367432 0.04692682 0.104550034 0.0739186 -0.042112745 0.012905143
-0.032472096 -0.052048933 -0.078506194 0.012918735 -0.0006359228 -0.038224805 -0.03728185 -0.0885101
0.05090417 0.037981786 0.12215302 0.023753146 -0.01769575 0.06892756 0.13797657 0.030580321
0.0011417251 -0.006109063 -0.15360887 -0.009331237 0.11396959 0.0420241 -0.055065956 -0.046021268
-0.0065197046 0.103259236 0.010966564 -0.010310041 -0.026935467 0.05759431 -0.14059356 0.107840516
-0.011629945 0.07725158 -0.10609783 0.031670827 -0.082394145 0.046169363 -0.058350805 0.0745209
-0.055647153 0.027685469 0.10543431 -0.048240375 0.037557807 -0.0058277464 0.012683516 -0.09884626
-0.08396236 -0.020238914 0.07013227 -0.010983357 -0.046758328 0.0076564336 -0.029295096 -0.008979568
-0.0015145298 -0.033915382 0.038615692 -0.028851567 -0.07881828 0.008121911 -0.019862412 -0.054537687
0.15276808 -0.013625861 -0.04577999 0.062727064 -0.14293024 0.0916979 -0.1353234 0.039670747
-0.021433081 -0.023093991 0.07745032 -0.085882604 0.011314557 -0.05742212 0.13267642 -0.07032124
0.09408145 -0.13710123 0.09882187 0.07225146 0.0058366107 0.0581158 -0.04960974 -0.05854576
-0.070779994 -0.06302356 0.023700157 0.025817052 0.03753913 -0.07063043 0.092402 0.11097778

lstm.bias_ih_l1 f4 [512]
00000000: f6c4 aabd fed8 94bd d723 38bd 5b9f 0dbd
00000010: 8fd7 afbd 5dfa 17be f8ea 20be 10b7 90be
00000020: 4298 683c 24f0 c5bd 88e0 23be 3d1b b03d
00000030: 7a8c 673d dee8 aabe c83b 22be a0fc 1ebe
00000040: 4e5e afbd 4405 2bbe f25d 9cbe c7bf 9abd
00000050: 25ff 1bbc 8ae6 86be a0c2 4fbe 2d51 c1bd
00000060: 327f bcbd 5490 34be de85 51be 555e f6bd
00000070: b459 a2bd e2fe b1bd bdd7 d2bd 764f 4dbd
00000080: f60a 17bd 1416 d7bd 5c67 51be bfc3 25be
00000090: 4842 61bd 1e5b efbd ae26 3cbe 4b3e e6bd
000000a0: e95a e6bd 0547 05be 71d4 98be 5b6c 203c
000000b0: a64a 2abe e47e 69bb 6d0f 9fbd 6ebb 3dbd
000000c0: 3d88 0fbe e827 25be 8bee 0bbe e604 7cbe
000000d0: 5f92 11be 2b1f 48bd b655 03be 069b c1bd
000000e0: 87ab 98be d6cc 28be ba0d 693d 4147 f0bd
000000f0: 41cc 253d 1776 4abe 4ffd e2bd 8a3a a4bd
00000100: 99eb e8bd 8b82 09be 9297 3fbe 6132 60be
00000110: 2f46 0bbd 49f1 2abe 6e8e e4bd 2ec9 763b
00000120: 8b73 2bbe 3d4c da3c a656 10be ca39 7ebe
00000130: 125a 08be 67cd 0d3d e49a 0ebe f457 e5bc
00000140: c623 42bb 579d ecbd 5898 e1bd ac6d 01be
00000150: a1a8 53be b95a 0ebe a470 29be 436c 1cbe
00000160: de5e 86bd 7767 03be 41e2 eebd 21ad 73be
00000170: 52bf 1a3b faef a63c 786b 70bd 7fe0 3abe
00000180: 8d3e 3abe 6563 1cbe d7ec e7bd 5eb1 5dbe
00000190: 8fb9 b6bd 9bc4 d7bd 66de 3abd 332a 20be
000001a0: ab3e 6bbe c44d 5bbe 3841 0dbe 66a2 2bbd
000001b0: 9cc7 89bd 5800 16be c087 a8bd 200d 1abe
000001c0: 956a eebc b5e7 a8bd 2257 11be 1b10 f5bd
000001d0: 5fab 9a3c bc1e 763c a798 c7bd 9e6b 09be
000001e0: bbc6 adbe 99f3 26be d468 07be 0c58 93bd
000001f0: 2c05 03be 9077 bdbd 9cd4 9f3d f78b 59bd
00000200: 3307 e6bc e35d 25be 8c89 6ebc b9fc 8c3c
00000210: 25ae e83b 7eb8 c7bc 2432 bcbd 2298 fbbd
00000220: 5603 62bd fc03 12bd 86a4 3b3c f26e be3b
00000230: cee6 cfbd 7be1 43be 35af 0dbe c9ed 09be
00000240: 7610 68bd 30c4 b0be e232 50be 135c e7bd
00000250: b11c a6bb 9c7a 9bbe b381 28be a2f7 21be
00000260: b872 3ebd 8a6d 8dbe 7038 073c 6359 42be
00000270: b6df 45be 7a1a 54bd d54f 19be 56b5 86bc
00000280: a899 99bd 4255 07be d781 e4bd ce44 dabd
00000290: 8af5 a8bd bd8f 15bd 3371 9bbd 3d2e 1fbe
000002a0: 22f9 6fbe 801b 0bbe e1ed 67be 5d5d 573d
000002b0: 92d5 8fbe 6f32 d1bd e746 5a3c c150 30be
000002c0: 9755 8abd 3b80 2dbe 404e bdbe 7983 9ebe
000002d0: 9462 09be 6fcc e83c 1e72 99bb 68b8 71bd
000002e0: 88fb 10be 120e 50bc 091a 6a3d a0ba f3bd
000002f0: 0f44 593d a15e 14be 3161 1dbd bc2b e8bc
00000300: d3dd 9fbc 8655 0abe 7da4 d8bd 0ecc 20be
00000310: af14 96bd cb55 94be 06c8 23be aa5f 58bd
00000320: f1b8 79be 99ed 9f3d beba a1bd fc13 9dbe
00000330: 9c33 953a 266f b0bd 479a eebd 5804 e9bd
00000340: 4b99 863c aaa1 bfbd ddc9 97be 8357 12be
00000350: 28ce dfbd 74b9 023b 54f7 72be 654e b8be
00000360: 2326 3ebd 0388 d1be 5fea fbbc 68c2 90be
00000370: e80b 8abd ac8a d6bd b6e3 d0bd 7b65 c5bd
00000380: 55b8 27bd a75e 93be 4921 4dbc 8bd4 dabd
00000390: 0e52 a2bd 23c0 d1bd 07c7 ecbd 209b 23be
000003a0: 57f8 15be 67b0 46be 19f9 7fbd 9f4f e6bd
000003b0: 6a65 9ebd 0f6b 22be 265d ffbd 36c8 debd
000003c0: 8133 20bc 7d22 04be 6036 92bd 2a69 33be
000003d0: e516 0bbe d786 38bd 7722 01be a3b3 46be
000003e0: 71ab 43be f979 64be 7857 a9bd 4096 67bd
000003f0: d44c a4bd a521 b7ba 5e0b 2b3d 1dec 4d3d
-0.083383486 -0.072679505 -0.044956055 -0.0345758 -0.085860364 -0.148416 -0.15714633 -0.28264666
0.014196457 -0.09664944 -0.1600362 0.08598945 0.056530453 -0.3338079 -0.15843117 -0.15526056
-0.08562909 -0.16701227 -0.30540425 -0.0755611 -0.00952128 -0.26347762 -0.20289087 -0.09439311
-0.09203948 -0.17633182 -0.20461223 -0.12029711 -0.07927266 -0.08691193 -0.10295055 -0.050124608
-0.036875688 -0.10502258 -0.20449585 -0.16187952 -0.05499485 -0.11687301 -0.1837413 -0.1124235
-0.112478085 -0.13015373 -0.2984958 0.009791459 -0.16630039 -0.0035628611 -0.07766614 -0.046321325
-0.14016815 -0.16128504 -0.13665216 -0.24611244 -0.14215992 -0.04885785 -0.12825665 -0.094533965
-0.29818365 -0.16484389 0.056897856 -0.117323406 0.040477995 -0.1977161 -0.11083471 -0.08018978
-0.11373062 -0.13428704 -0.18710163 -0.21894218 -0.03400248 -0.16693605 -0.11159979 0.0037656534
-0.16743295 0.026647681 -0.14095554 -0.24826732 -0.13315609 0.034619715 -0.13926274 -0.02799604
-0.0029623373 -0.11553448 -0.110153854 -0.12639493 -0.20669796 -0.13901795 -0.16546875 -0.15275674
-0.06561063 -0.12832437 -0.11664248 -0.23796512 0.002361257 0.020378102 -0.05869624 -0.18249701
-0.18187924 -0.15272291 -0.113244705 -0.21649691 -0.08922111 -0.105355464 -0.045622252 -0.15641098
-0.22973125 -0.21416384 -0.1379441 -0.041902922 -0.067275256 -0.14648569 -0.08229017 -0.1504407
-0.029103557 -0.082473196 -0.14193395 -0.119659625 0.018880544 0.015021976 -0.09745913 -0.13419959
-0.33940682 -0.16303863 -0.13223583 -0.07194528 -0.12794942 -0.0925132 0.07804224 -0.053111997
-0.028079605 -0.16149096 -0.014559161 0.017210351 0.007100838 -0.024379965 -0.09189251 -0.122848764
-0.055178963 -0.03564833 0.0114528 0.0058115656 -0.101514444 -0.19128983 -0.13836367 -0.13469614
-0.056656323 -0.3452468 -0.2033191 -0.11296859 -0.0050693383 -0.3036698 -0.16455726 -0.1581712
-0.046496123 -0.27622634 0.008253202 -0.18979411 -0.1932362 -0.051783063 -0.1497186 -0.01644389
-0.07500011 -0.13216117 -0.111575775 -0.10657655 -0.08249958 -0.036514033 -0.075899504 -0.15544982
-0.2343488 -0.13584709 -0.22649337 0.052579273 -0.2809263 -0.102146976 0.0133225685 -0.17218305
-0.06754606 -0.16943447 -0.36973763 -0.3095968 -0.13416511 0.028417794 -0.0046827933 -0.059013754
-0.14158452 -0.012698667 0.057153735 -0.1190083 0.05304342 -0.14489223 -0.038422767 -0.028341167
-0.019514954 -0.13509187 -0.10578249 -0.1570284 -0.07328164 -0.28971705 -0.15994272 -0.052825607
-0.24386956 0.0780899 -0.07896946 -0.3067931 0.0011383179 -0.0861495 -0.1165052 -0.11377782
0.016430518 -0.09357007 -0.29646197 -0.14291196 -0.10927993 0.0019946964 -0.2372716 -0.3599731
-0.04642309 -0.4092408 -0.030751405 -0.2827332 -0.06740552 -0.10475668 -0.101996824 -0.096384965
-0.040947277 -0.28783152 -0.012520143 -0.106850706 -0.07925807 -0.10241725 -0.11561399 -0.15977144
-0.14645515 -0.1940323 -0.062493417 -0.11245655 -0.07734187 -0.15861152 -0.124689385 -0.10878031
-0.0097779045 -0.12903781 -0.071392775 -0.17520586 -0.13582952 -0.04505047 -0.12610804 -0.19404463
-0.19108368 -0.22312154 -0.082686365 -0.056539774 -0.08022466 -0.0013971819 0.041758887 0.050274003
