Mini_project - Copy/models/weather_forecast_model.pth (torch, 918218 bytes, 10 tensors)

lstm.weight_ih_l0 f4 [512, 4]
000000 c2 cd 3a be 84 93 43 bd 5d 3d 11 3e 1a 20 9f 3d
       -0.18242553 -0.047748104 0.14183564 0.07769795
000010 6b da 32 3d a7 6b aa 3e 5a d4 12 bd dc 06 12 3d
       0.04366533 0.33285257 -0.035847045 0.035651073
000020 bf 22 0d 3d cb 3e fd 3b 91 58 e0 bd c8 d3 31 bd
       0.034456965 0.007728433 -0.10954393 -0.04341486
000030 d2 62 43 3d 50 19 92 3d 87 72 8c bd 2f cd 66 be
       0.047701664 0.07133734 -0.06857782 -0.22539209
000040 ed 35 d1 bd a1 86 bd 3c ec 3a cc bb 8b 3e d1 bd
       -0.10215364 0.023135485 -0.00623261 -0.10217007
000050 f3 a0 e0 bd 0f 4f 2d bc f2 c9 66 bd da f6 92 bd
       -0.109681986 -0.010577931 -0.056344934 -0.071759894
000060 c0 c9 a5 bd 14 1a 2a 3c 03 a3 36 3e a7 ae 8c 3e
       -0.080951214 0.010382194 0.17835622 0.27477
000070 c1 38 aa 3d bc 9b 8d 3e c6 c1 20 bd 14 8a 22 3d
       0.08311606 0.27657878 -0.039247297 0.039682463
000080 e8 82 33 bc 15 97 e1 3e 10 01 63 3e 52 99 ad 3e
       -0.010956503 0.4406058 0.22168374 0.33906037
000090 4d 71 49 be 64 dc 24 be 3f c2 3d 3d 80 58 34 bd
       -0.19672127 -0.16099697 0.046327826 -0.044029713
0000a0 7c 1f bf 3d 7a ac 4a 3e 53 41 a6 3e 02 b6 1a 3e
       0.09332177 0.19792357 0.32471713 0.15108493
0000b0 11 50 86 bd b1 b9 88 bc 83 99 0e be 21 a3 b8 bd
       -0.0655824 -0.016690107 -0.13925748 -0.09015489
0000c0 fa 1b cf bc da ff d2 bd 5e 64 c6 bc c6 a2 24 be
       -0.025281895 -0.10302706 -0.02421778 -0.16077718
0000d0 09 2d e5 bd 3f 61 6a bf 37 4f e7 3e fd dc a3 3e
       -0.111902304 -0.91554636 0.45177624 0.32004538
0000e0 03 2d 3b bd 4f 82 1e be bc 5c 6a bd 40 46 4d 3c
       -0.045697223 -0.15479396 -0.057217345 0.012528956
0000f0 2d 84 17 be f3 ce ed bc ff a7 64 bd c8 ae e3 bd
       -0.14796515 -0.029029345 -0.055824276 -0.11117321
000100 81 b6 52 be 84 38 54 be c9 54 b1 3d 32 07 53 bd
       -0.20577432 -0.20724684 0.086587496 -0.051520534
000110 80 a2 ad be bd 42 8b be 9d 0b 35 3f 3f a7 bf 3f
       -0.3391304 -0.27199355 0.70720845 1.4972914
000120 ec 21 ae bd 4e e1 93 be 1c c1 b7 3c 22 ec fc 3d
       -0.08502564 -0.2888283 0.022430949 0.12349726
000130 fe 0b 9d 3d 73 cd 98 bf d3 ff 4b be 0d cb 0f bf
       0.07668303 -1.1937698 -0.19921808 -0.56169206
000140 a5 08 59 bd 89 3b 26 bb 82 01 2d 3e a9 08 2a 3e
       -0.05298676 -0.0025365076 0.16895106 0.16604866
000150 7e 72 89 bd 5e 4f 92 bd c7 33 b5 bd 1f 7b 07 be
       -0.06711291 -0.07144044 -0.08847766 -0.1323056
000160 34 22 fa bb 84 09 26 bd 80 b1 cd bd 2e 1e 84 be
       -0.007633472 -0.04053642 -0.10043621 -0.25804275
000170 e4 6d ae bd 4e cf 67 3d 14 0d 74 be fe 04 6e be
       -0.08517054 0.056594186 -0.23833114 -0.23244092
000180 b5 ed c8 3d ec b4 60 bf 02 a9 44 3d 37 e7 af be
       0.09810964 -0.87776065 0.04801274 -0.3435609
000190 f1 44 5e 3d da 07 2a be aa ae 1b 3d a7 51 c9 bd
       0.054264966 -0.16604558 0.03800837 -0.09830027
0001a0 43 14 4b 3d e7 0e 61 bd 6d 45 8f bd e0 74 da 3c
       0.04957987 -0.054945853 -0.06995664 0.026667058
0001b0 de 3f 35 3d bc 03 d4 3b 0d 75 09 3e 6d 89 56 3e
       0.04425036 0.0064701717 0.13423558 0.20950861
0001c0 1e 3b 16 be ea de 22 3e ef e7 46 bd eb df a8 be
       -0.14670989 0.15905347 -0.048561033 -0.32983336
0001d0 32 c5 c2 bd 23 85 34 bd 5e 14 14 bd 45 55 34 bb
       -0.09510268 -0.04407228 -0.036152236 -0.0027516645
0001e0 99 77 54 bc 98 07 78 be da d2 d6 3e c8 68 be bc
       -0.012967967 -0.24221647 0.41957742 -0.023243323
0001f0 b3 a0 7c be 15 2e 01 bd f8 a8 08 be d7 0f 0f be
       -0.24670677 -0.031538088 -0.13345706 -0.13970886
000200 c1 c8 1f be 44 d2 03 be 96 4c 22 bd 50 e6 56 be
       -0.15603925 -0.12873179 -0.03962382 -0.20986295
000210 e2 e2 3b 3d f8 8a fe bc 05 57 2a 3d 01 fa 1d be
       0.04587067 -0.031072125 0.041586895 -0.154274
000220 ff d7 57 be 30 ad 54 3e 49 7a 21 3e aa bf 89 3e
       -0.2107849 0.20769191 0.15769304 0.2690404
000230 f8 49 4b be dc c0 df be f9 81 85 bc 17 34 84 be
       -0.19852436 -0.43701828 -0.016297327 -0.2582099
000240 02 a8 c5 bc 46 f5 6d 3d f6 a9 19 be 0b 0a 80 be
       -0.024127964 0.05809524 -0.15006241 -0.25007662
000250 6e 00 83 bd 15 b9 32 3d a5 72 28 3d 81 e7 1e be
       -0.06396566 0.04363354 0.04112496 -0.15517999
000260 88 da a2 3d 4c 4e 91 bc 2f 08 bc be 85 74 49 be
       0.07951838 -0.01773753 -0.36724994 -0.19673355
000270 75 d7 70 bd 5c e5 9c 3e bb c2 71 be 6c 4d 85 3c
       -0.058799226 0.30643737 -0.2360944 0.01627227
000280 f4 99 45 3c 9c ee f1 bd 6d 0c f3 3e 54 32 c0 3e
       0.012060631 -0.11813089 0.47470418 0.37538397
000290 3e 89 10 bb 80 fe de 3c 58 9e 07 3e c0 12 8a 3c
       -0.002205446 0.027220964 0.13243997 0.016854644
0002a0 2e ac a6 bd a0 1b fa bd a1 60 42 bd e9 8d db bd
       -0.081383094 -0.122123 -0.047455434 -0.107204266
0002b0 d2 86 68 bd 18 ce c6 3d 95 f4 ae 3d 63 6f c8 bd
       -0.0567692 0.09707278 0.08542744 -0.0978687
0002c0 ba 14 9c 3d 52 9b 2b be 0e 0a 5d 3e d8 90 99 3e
       0.07621141 -0.16758469 0.21585867 0.2999332
0002d0 3a 60 32 be 39 59 d4 bd f9 ad 60 bf 63 97 0e bf
       -0.1741952 -0.1036858 -0.8776546 -0.5569975
0002e0 77 06 a1 bd d4 52 b6 be 63 e3 11 3e 0b 2a 7d be
       -0.07862561 -0.35610068 0.14246897 -0.2472307
0002f0 67 a0 0b 3b 91 67 17 3e d1 a1 72 bd e4 05 f6 3c
       0.0021305324 0.14785601 -0.05923635 0.030032106
000300 0a 38 4c bc 0a 5e 88 bd 1c 5c 35 bc 1e cd 91 3d
       -0.012464533 -0.066585615 -0.011069324 0.07119201
000310 1f 68 ef 3d b6 10 54 3e 14 40 0b 3d c4 0d 01 bd
       0.116897814 0.207095 0.033996657 -0.03150727
000320 11 53 94 3c e7 71 f1 3d 88 ec 6b be 4a fc ba be
       0.018106015 0.11789303 -0.23039448 -0.36520606
000330 52 eb 8a be 90 9a 7d 3f 48 e7 8d 3e 2a c9 e7 3e
       -0.2713266 0.9906397 0.27715516 0.45270663
000340 90 7e 49 be f6 ca 1b be a4 1d 80 bb 44 da c1 be
       -0.19677186 -0.15214142 -0.0039097834 -0.37861836
000350 fb 14 09 3e 38 d2 f7 3e 62 8d 5a 3e fb 03 be 3e
       0.1338691 0.48402572 0.21342996 0.37112412
000360 db 33 25 be 93 57 c8 be f5 fc fc bc 02 d9 82 bd
       -0.16133063 -0.39129314 -0.030882338 -0.06389047
000370 19 2b f7 3c 38 5f e2 be 13 f1 a3 3e cd f7 3a be
       0.030171918 -0.4421327 0.32019863 -0.18258591
000380 5c 1e 29 be ce 8b 44 3e eb 40 29 be fc 2b 21 3e
       -0.16515487 0.19193956 -0.1652867 0.15739435
000390 6a 2e 9f bd 23 a9 eb 3c 16 ac 4a bc 4a 8c 36 3d
       -0.07772525 0.028767174 -0.01237013 0.044567384
0003a0 e6 d1 f9 3c d6 c6 66 be 97 7d 23 bd 9e 06 4b bd
       0.030495595 -0.22536787 -0.039914694 -0.049566858
0003b0 08 7c c2 bd f4 e0 85 bd 41 36 5d 3d 10 5b a6 be
       -0.09496313 -0.06537047 0.05400682 -0.3249135
0003c0 db 9a 55 be 64 63 a8 3e 51 16 01 3f 00 29 08 3f
       -0.20859854 0.3288833 0.5042468 0.5318756
0003d0 69 f3 d7 bd 58 9a 04 3e 19 a9 e6 3d 28 b5 11 bb
       -0.10544474 0.12949502 0.112627216 -0.0022233222
0003e0 7b bb 96 3d 47 96 c9 be 08 74 fd bc 76 8d 3a be
       0.07359978 -0.39372465 -0.030939117 -0.18218026
0003f0 4c 40 86 3d 9b a1 23 be e8 58 41 3f 4e 84 1e 3f
       0.065552324 -0.15979616 0.75526285 0.6192063

lstm.weight_hh_l0 f4 [512, 128]
000000 3f 9a d3 ba 57 1f 1c bd 0f 36 a7 3d da 94 c9 3c
       -0.0016143991 -0.038115826 0.08164608 0.02460711
000010 f9 cd 37 3d c4 6b 73 bc f0 d1 4c 3d c6 b1 d0 b9
       0.044874165 -0.014857236 0.0500049 -0.00039805303
000020 88 58 54 3d c0 5c 34 bc 3b 2c 1f be e8 45 1f bd
       0.051842242 -0.011008441 -0.15544216 -0.038885027
000030 a4 2f 5c 3d 68 1f 31 be b3 e1 0b bd 50 1d 04 3d
       0.05375637 -0.17297137 -0.03415079 0.032254517
000040 8c 38 32 3d e8 94 78 3e e1 f5 29 bd c8 a8 06 3e
       0.04351096 0.24275553 -0.041494254 0.13150322
000050 ec 1a 98 3d d3 4f 9d bd 9f d1 96 bd 1c 7a 0e be
       0.0742701 -0.07681241 -0.07364201 -0.13913769
000060 38 1d 1b 3e 8d 71 6f bc 85 0b a7 ba e4 77 0d 3e
       0.15147865 -0.014614475 -0.0012744522 0.13815266
000070 21 83 1e be 20 c3 68 3b 46 ed c1 bd a8 b9 47 3d
       -0.15479709 0.0035516694 -0.094690844 0.04876104
000080 0c 08 e5 ba d0 54 ff bc f4 11 9a 3d 61 23 12 be
       -0.0017473712 -0.031168371 0.075229555 -0.14271308
000090 fd a4 65 3d 99 f8 7d 3c cb 98 c2 3d 46 99 56 3d
       0.05606555 0.015501165 0.09501799 0.052392267
0000a0 8f 1b d7 bd 30 9e a8 3c 32 b1 17 bc f7 9c a4 bd
       -0.10503303 0.020583242 -0.009258555 -0.08037751
0000b0 ab cf 5c be a6 7f 1c 3e 68 11 bc 3d a4 b5 7d 3d
       -0.21563594 0.15283069 0.091830075 0.061940804
0000c0 de de 4e bd e5 cf 7d 3d 6d 56 67 be 3d 6e b6 bc
       -0.05050551 0.06196584 -0.22591563 -0.022269363
0000d0 27 1b c7 bd 4b 4c 30 be d3 59 ca bd 6d b8 fb bc
       -0.09721976 -0.17216603 -0.09880414 -0.03072759
0000e0 c0 6b 46 3d ae 31 2a bd c2 da d0 bd 14 ba 1a 3d
       0.048442602 -0.041551284 -0.10197975 0.037775114
0000f0 8a c2 d4 3d 02 91 22 bd 5b c3 8b 3d cb 50 ca 3d
       0.10388668 -0.03968907 0.068243705 0.09878691
000100 eb bc 37 3e ca 5f 8f 3b 58 66 8c 3c dd 9a 30 3d
       0.1794316 0.0043754326 0.017138645 0.04311644
000110 f1 64 d2 bd 93 be 53 3d a8 59 97 3d 5b db 8a 3d
       -0.10273159 0.051695418 0.073901474 0.0678012
000120 43 91 9c bd 7b 7c 5e 3e 1a 98 aa 3e 6d 24 f7 bc
       -0.07644894 0.21727173 0.3331917 -0.030168736
000130 9c 59 85 bd 99 38 4b 3d bc 03 c5 3a e5 c2 e9 bd
       -0.06511232 0.049614523 0.001503102 -0.11414126
000140 e0 dc 18 be d0 74 d3 bd c9 0a 65 bb 89 aa 89 bd
       -0.14928007 -0.103250146 -0.0034949055 -0.0672198
000150 65 16 8c 3d 00 9d b2 3d e0 eb 31 be e7 ed 13 3d
       0.06840209 0.087213516 -0.17375135 0.036115553
000160 ba f7 f0 3d 2e a7 0f be 70 d4 1c be e6 27 7b 3c
       0.11766 -0.14028618 -0.15315413 0.015329337
000170 28 97 41 bd 10 f7 60 3e ec ba e4 bd db 5e 03 bd
       -0.047263294 0.21969247 -0.11168465 -0.032072883
000180 47 23 4d bd 4b 6b dc bc 35 f7 4d be c0 96 14 3d
       -0.05008247 -0.02690663 -0.20113833 0.03627658
000190 a8 20 82 3e bc 66 0a 3e be da 0f 3d 95 d9 ad 3d
       0.2541554 0.13515753 0.03512072 0.08488766
0001a0 32 cd 03 3e ab fb 2a bc 12 65 a6 bd 3b ec 1c bd
       0.12871245 -0.010435979 -0.081247464 -0.038311224
0001b0 23 93 6b be 7f d3 9c 3e 67 a9 70 3e b1 97 08 be
       -0.23005347 0.3063011 0.23502122 -0.13339116
0001c0 8a ed f2 bd c6 b0 82 3d ab 8b 2a bd ac 14 44 3d
       -0.11861713 0.06381373 -0.041637104 0.047871277
0001d0 cc 1f df bc 84 a2 79 be 6f b2 e1 bd f8 20 47 3d
       -0.027236842 -0.24378401 -0.11020362 0.048615426
0001e0 5c 58 ec bc 04 95 b2 3c 55 65 f5 3d b4 1e 56 3d
       -0.028850727 0.021799572 0.11982218 0.052275375
0001f0 e3 42 9b 3d 52 23 05 3e 17 80 25 3c a5 ec 41 bd
       0.07581117 0.13001755 0.01010134 -0.047344822
000200 b1 8d 3d 3c c9 37 6b bd 14 28 92 bc 9e d6 a6 ba
       0.011569426 -0.057426248 -0.017841376 -0.0012728756
000210 63 74 70 3b a2 53 0d 3d f5 bb e0 b8 77 07 91 3d
       0.0036690466 0.034503587 -0.00010716162 0.07081502
000220 4e 6c df 3c a5 7e 55 3d 89 04 ab 3d c7 d6 0d 3d
       0.027273323 0.05212273 0.083504744 0.034628656
000230 5c 4f 24 3d c3 cd 2a bc aa c9 41 3d e1 f0 61 bd
       0.040114745 -0.010425034 0.047311462 -0.05516136
000240 8a 68 1a 3d 61 d8 9f 3d 3c c9 e6 bd 4a 65 dd 3d
       0.037697352 0.07804943 -0.11268851 0.10810335
000250 9f 15 6b 3c d9 ca 8a 3b 06 12 9d bd f6 75 13 3d
       0.014348417 0.004235607 -0.07669453 0.03600117
000260 23 9a b2 bd 7f 86 8f bd 36 81 25 bd 68 9a 23 ba
       -0.087208055 -0.07008075 -0.04040643 -0.0006240965
000270 08 9c 17 3c 97 05 9e 3c 53 ba 02 3d 60 f1 d0 bd
       0.009253509 0.019289775 0.031915974 -0.10202289
000280 78 bb 9a 3d 94 41 65 3d 97 62 0f be 75 cf c7 bc
       0.07555288 0.055970743 -0.14002453 -0.024390915
000290 2a 01 84 bd fb ee 7f 3c 1f 8e 0f bb 74 17 89 bd
       -0.064455345 0.015620942 -0.002190478 -0.066939265
0002a0 6a 2f 39 bd 12 c4 5f 3d 30 84 a6 3d 30 bf 3f 3c
       -0.045211233 0.054630347 0.081306815 0.0117032975
0002b0 a7 76 76 bd fc 4a a2 bc 7d 17 dd bd d3 77 d4 bc
       -0.06017175 -0.019811146 -0.10795496 -0.025936043
0002c0 2d d4 bd bb f3 cb 91 bd 25 61 48 3d f9 04 b2 3d
       -0.0057931156 -0.07118978 0.04892077 0.08692355
0002d0 ce 01 c9 3d 2c 53 d0 bd ed bf 48 3d 5b 64 43 3d
       0.09814797 -0.10172114 0.04901116 0.04770313
0002e0 fa f1 8f bd 68 b3 ee bc 78 cf e6 3c eb 27 83 3b
       -0.07028575 -0.029138282 0.0281751 0.0040025613
0002f0 57 8b bc 3a 10 b8 d1 bb d7 e7 38 bd 39 7b 82 3d
       0.0014384788 -0.006400116 -0.045142975 0.06371159
000300 87 d0 ff bd aa 3a b4 3c 4a 25 97 3c 00 2c 3f bd
       -0.12490945 0.02200063 0.018450398 -0.04667282
000310 76 9e 33 bd 49 ba 2e 3d c8 7c e4 3c db 01 9a bd
       -0.043852292 0.042658124 0.027891532 -0.07519885
000320 69 6e f2 3c 73 97 09 bc 9e 20 e9 3d 7a 54 49 bd
       0.029593663 -0.008397925 0.11383174 -0.04915283
000330 f6 22 26 3d 71 3d 69 3c f1 86 e3 bc 2a 53 4d be
       0.040560685 0.01423584 -0.027774306 -0.20051256
000340 1f b6 21 3d 24 c6 9b 3d 4f 5e aa 3d 67 a9 24 3d
       0.039480325 0.07606152 0.08318769 0.040200617
000350 5d 06 87 bd fa ef 44 3d 14 94 c1 bc df 1e 01 3d
       -0.065930106 0.048080422 -0.02363018 0.03152358
000360 d9 95 49 bd 59 8b 81 bd 95 91 a1 bd 3d cd 80 bd
       -0.04921517 -0.063254066 -0.07889096 -0.06289146
000370 fb 0e d6 bd 50 07 8c 3d c3 1c c6 bd 36 27 56 3c
       -0.10452076 0.06837332 -0.096734546 0.013070872
000380 34 5a 0e bd 2d d5 96 bc bc 04 6f bc d2 a9 ed 3c
       -0.034753993 -0.018412197 -0.014588531 0.02901164
000390 62 57 a3 bd 7a 3c 8a 3d 4d 18 b6 ba 4b f3 ab 3d
       -0.07975651 0.06749816 -0.001389274 0.08396014
0003a0 83 68 90 3d 9a cd 35 3c 25 99 f7 bc d5 1e 51 bd
       0.07051184 0.0110963825 -0.030224392 -0.051054794
0003b0 00 d0 1e be 94 39 12 3d 3a 1f a4 3d dc 2b a3 3d
       -0.15509033 0.035699442 0.080137685 0.0796735
0003c0 67 87 c7 3d e6 28 b8 bd 9a 7a 6c 3d 83 6c 80 bd
       0.09742623 -0.08992176 0.05773411 -0.06270697
0003d0 8d c0 89 bb b6 52 9a bd 84 5b b6 bc bd 40 27 bd
       -0.004203862 -0.07535307 -0.022260435 -0.040833224
0003e0 f9 92 0c 3d 19 ce 9a 3d e5 9c a2 bd d7 ec 38 3d
       0.03431985 0.07558841 -0.079400815 0.045147743
0003f0 ee 0d f2 bc e6 98 7e 3d 06 7e c8 bd 60 09 9d bd
       -0.029547658 0.062157534 -0.09789662 -0.07667804

lstm.bias_ih_l0 f4 [512]
000000 7f 2f 74 bc 80 99 81 3c b4 8c 17 be 98 cd 70 3b
       -0.014903902 0.015820265 -0.14799768 0.0036743637
000010 51 d5 68 bd 7b 56 a7 bd e2 97 d8 3c 3f c8 99 bd
       -0.05684406 -0.08170792 0.02643961 -0.07508897
000020 22 ae 22 be 4d c1 bc bd 26 d5 ad 3d cf f8 dd 3b
       -0.15886739 -0.09216557 0.084879205 0.006774045
000030 a4 dd d7 3c c1 2a bf bd 69 f2 ed 3b cd 13 37 3d
       0.026350804 -0.093343265 0.0072615636 0.044696618
000040 f7 e2 e9 bd fd 89 95 be 61 1b 0f bc 0c 5d 2c 3c
       -0.11420243 -0.2920684 -0.008734555 0.010520231
000050 b9 bf 02 be 32 c8 a3 bd 6b 7d 9c bd 53 c8 f6 bd
       -0.12768449 -0.079971686 -0.07641109 -0.120499276
000060 f8 5d bc 3d 40 c7 e1 bd a1 c2 36 3d 6a 20 30 bc
       0.091976106 -0.11024332 0.044619206 -0.010749916
000070 d5 6c 70 bd cb 4b fc 3b b8 8a 6b 3d 01 95 0a be
       -0.05869754 0.007699465 0.05750534 -0.13533403
000080 62 01 d0 bc ac 48 11 3c 68 0c be 3b 83 88 fe bd
       -0.025391284 0.008867424 0.005799819 -0.12428381
000090 93 01 67 3d cb 5b 7a 3d 8f 21 0f bc d2 02 da bd
       0.056397986 0.061122697 -0.008736028 -0.10645069
0000a0 1c 06 00 be 5f af e0 3c ed dc f9 bd fd e3 45 bd
       -0.1250233 0.027427373 -0.122003414 -0.04831313
0000b0 94 b9 1f 3e cb 4b c0 bc cb d0 c1 bd 44 bf ec 3c
       0.15598136 -0.02347364 -0.09463652 0.028899796
0000c0 99 35 a4 bd ae 86 da bd 65 ab 86 bd ab ea e5 bd
       -0.080180354 -0.10670219 -0.0657566 -0.112264
0000d0 87 a8 8b 3c 54 7e 0e bc 4c bf 48 be 87 37 e1 3c
       0.017048134 -0.008697111 -0.19604224 0.027492298
0000e0 f9 28 5a bd d8 0e df bd 1d 30 1c 3d 40 12 0e bd
       -0.05326173 -0.10891503 0.038131822 -0.034685373
0000f0 dc 7d 07 bc 6d 7a 86 bc bd 78 2b be 18 b9 dc bc
       -0.008269753 -0.016415799 -0.16745277 -0.026943728
000100 e3 ee 8b 3d 90 81 06 be 45 37 26 3d ee e1 91 3d
       0.068326734 -0.13135362 0.040580053 0.07123171
000110 c9 81 46 bd fa ed 4e bc 41 16 f5 bd a4 bb b6 bd
       -0.048463617 -0.01262998 -0.11967135 -0.08922508
000120 10 d1 86 bd 5b bf 96 bb f0 49 00 be 07 56 df bd
       -0.06582844 -0.004600448 -0.12528205 -0.1090508
000130 06 14 f3 bd 3e 2e 05 be ed f2 97 bd ee b9 f5 3d
       -0.118690535 -0.13005921 -0.07419381 0.11998354
000140 fe 5b f5 bd fb b5 f2 bd 05 aa 87 bd 00 33 9d bd
       -0.11980437 -0.11851116 -0.066242255 -0.07675743
000150 be 82 2e 3d ac 37 81 bd bf 53 82 3d 4f 3d 62 bd
       0.042605154 -0.06309447 0.063636295 -0.05523425
000160 27 c8 0c bd 8c f4 f0 bd a7 a4 03 3c df 11 d0 3b
       -0.034370568 -0.117653936 0.008034862 0.0063497867
000170 8d dd a0 bd 05 0d 12 be e5 cf d3 bc 84 c7 f6 bb
       -0.078547575 -0.14262779 -0.025855968 -0.0075311083
000180 46 60 94 3c 15 83 c2 3b a4 17 a7 bc 3e 0b 9c bd
       0.018112313 0.0059360364 -0.020397015 -0.07619332
000190 e1 41 17 bd 3a 40 f7 bd 8a 1b 05 3d 13 8d 0d be
       -0.03692806 -0.12072797 0.032496966 -0.13823347
0001a0 6b 50 48 be 14 ef d9 bd e6 ef 13 bd 3b b6 ad bd
       -0.19561927 -0.10641304 -0.036117457 -0.08482023
0001b0 d9 3c 52 be 91 36 34 3c 7d 7e cf 3d eb 41 32 3e
       -0.20531024 0.010999338 0.101315476 0.17407958
0001c0 ca 7c 8b bd e0 51 ce bd ae 0d 99 bd 04 1c d0 bc
       -0.06810911 -0.1007421 -0.07473312 -0.025403984
0001d0 44 d2 9b bd fa 4a 29 bd b9 78 c5 bc 06 04 87 3c
       -0.07608464 -0.04133127 -0.024105417 0.01648141
0001e0 61 6e 94 bd 77 e5 2a be 82 57 bd bd 06 33 ba bd
       -0.072476156 -0.16689096 -0.092452064 -0.09091763
0001f0 81 a1 cf bd b3 9e 40 3d aa 37 af bd a6 1c 06 3d
       -0.10138226 0.047026347 -0.08555539 0.032742165
000200 d1 b8 d4 bc 68 9d db bd 6c 94 77 bd 06 fd bd bc
       -0.025967034 -0.10723382 -0.06044428 -0.02319194
000210 e4 50 35 3d b1 a9 40 3d ec 15 25 3c a0 97 71 3b
       0.044266596 0.04703683 0.010076027 0.0036864057
000220 0d 9f a8 bc 6d 8a 80 bd 94 a4 af 3e 02 ef f8 3c
       -0.020583654 -0.062764026 0.3430525 0.030387405
000230 7d 94 1f 3d 8b d0 21 3e a5 79 c2 bd 63 5e 9e 3d
       0.03895997 0.15802209 -0.09495858 0.077328466
000240 d7 77 4a bd 79 3b ab 3e c1 fd 2c bd 41 83 6a 3e
       -0.049430694 0.33443812 -0.042234186 0.22901632
000250 4c 72 93 bd 62 14 9c bd de 88 5b 3b de 4d 76 bd
       -0.07199535 -0.07621075 0.0033498327 -0.060132854
000260 2c 60 55 3d c9 39 fc bd e0 42 84 bd e2 0a 39 3c
       0.05209367 -0.12315709 -0.06458068 0.011294099
000270 d2 5e 2d 3d 4d b3 a8 bd f1 d3 9e bd 45 b4 bc bd
       0.042326756 -0.08237324 -0.07755268 -0.09214071
000280 28 0b 3d 3d 76 77 a3 bd 3f c8 b5 bd 72 0b e6 bc
       0.046153218 -0.0798177 -0.088760845 -0.02808163
000290 a5 96 8b 3d 82 ef c9 bd a9 08 07 3d 45 16 f5 bc
       0.068158425 -0.098601356 0.032967243 -0.029917846
0002a0 8b f5 55 bd 8b dc 63 bd 99 ae 82 bd 26 65 f5 bd
       -0.05223612 -0.055630248 -0.06380958 -0.11982183
0002b0 1c 79 6b 3e 56 e0 f0 3d fd 2a 99 3d 5e 99 fa bd
       0.22995418 0.11761539 0.074789025 -0.12236284
0002c0 0a 05 11 3d 83 dc 8d bd 7b be a3 3c 0a 7c 75 3d
       0.035405196 -0.06926825 0.01998829 0.059932746
0002d0 2b 1f 29 3d f2 bc 60 3e c7 af 87 bd a1 ec f6 3b
       0.04128949 0.21947077 -0.06625324 0.0075355326
0002e0 73 ae 85 3d ca 18 73 3c aa 55 d4 bd 84 02 55 ba
       0.06527414 0.014837453 -0.103679016 -0.000812568
0002f0 f6 fe a6 3d 96 d0 27 3d 04 83 49 3d d4 eb fd bd
       0.08154099 0.040970407 0.04919721 -0.12398496
000300 a0 31 0c 3d 5c ce bf bd bd 50 92 bd 4d e5 02 bd
       0.034227014 -0.09365532 -0.07144306 -0.03195696
000310 0a 0c ce 3c 51 3f c8 bd 84 82 c5 3b f7 e0 ae bc
       0.025152225 -0.09777702 0.0060275216 -0.021347506
000320 cd a4 76 3c 24 f1 5c bd c9 46 af 3d 30 c5 3d bd
       0.01505394 -0.053940907 0.08558423 -0.04633063
000330 51 e9 40 3d eb 03 54 3b 3d 97 1c bd 0d 60 95 3e
       0.047097508 0.0032350968 -0.03823017 0.29174843
000340 c0 17 0b 3d f3 04 d0 3a 34 1f 2f 3d 4c 65 dd bc
       0.033958197 0.0015870616 0.042754367 -0.027025841
000350 bc 44 10 bc d9 75 8c bd 3f 08 5f 3e 53 67 62 3d
       -0.00880545 -0.06858415 0.2178049 0.05527432
000360 6c 0d 44 3e 18 7a bb bc ca a7 be 3d c2 a1 6a bd
       0.19145745 -0.022885367 0.09309347 -0.05728317
000370 7f 24 3a 3d 37 e1 7a 3b 7b d5 f2 3b f7 c6 1a bd
       0.04544496 0.003828121 0.0074107028 -0.037787404
000380 0d f7 85 bd 39 4f a0 3d 78 79 b0 bd 25 15 8e bd
       -0.06541262 0.078276105 -0.08616918 -0.06937627
000390 ff 2a 1a 3e a1 4d 75 bd bb 2a f5 3c f6 22 f1 bd
       0.15055464 -0.059888486 0.029927602 -0.117742464
0003a0 24 05 30 3e 51 dd 4e 3c 83 b7 9b 3b a0 88 54 3d
       0.17189461 0.012626008 0.004752101 0.05188811
0003b0 1e bc 94 3d dc 99 0e 3e 92 b7 a0 3d 5d db b0 3d
       0.07262443 0.1392588 0.07847513 0.0863559
0003c0 ea d6 ac 3d 82 32 c7 bd 15 b9 df bc c7 3b 1d be
       0.08439429 -0.097264305 -0.027309934 -0.15354834
0003d0 7e 1d 79 3d e4 f0 04 3e ff ad fb bb e9 8b eb bb
       0.06081914 0.12982517 -0.007680654 -0.0071883094
0003e0 9b 20 c4 bc d6 a8 9e bd 6d 6d 5a 3e 13 2e 31 bc
       -0.023941329 -0.07747047 0.21330805 -0.010814208
0003f0 92 f3 ce bd 58 42 d8 3d 16 29 43 3d 7a 30 a0 bd
       -0.10105051 0.10559529 0.047646604 -0.07821746

lstm.bias_hh_l0 f4 [512]
000000 ce 6e 51 bd 9b 43 9f bd 66 3f d8 bd 6b a9 1a 3d
       -0.051131062 -0.077765666 -0.10558967 0.037759226
000010 7e 3b eb bc fc 7a 07 3d 9d 4b 7d bd 1b fa 8e bd
       -0.028714892 0.03307627 -0.06183969 -0.069812976
000020 56 6f ea bd 20 aa 3a be 84 56 b8 3d 85 c0 dc bd
       -0.11447017 -0.1822896 0.090008765 -0.10778908
000030 c8 c9 f0 bd d1 5e 5d bc 26 ad a7 3c 0c 2e ad bc
       -0.11757237 -0.0135113755 0.020468306 -0.02114012
000040 e6 b2 07 be d7 56 86 be 97 ad a8 bd 6b ec e3 3c
       -0.13251838 -0.2623813 -0.08236235 0.027822694
000050 2e eb 03 bd ba e8 9e bd 6d 99 a5 bd 89 20 1a bd
       -0.032206707 -0.07759233 -0.08085904 -0.037628684
000060 92 ca fc 3c 9b ff 19 3d 02 c1 9a 3c d5 97 02 bc
       0.030858312 0.03759728 0.018890861 -0.00797077
000070 ee a7 06 be 82 49 4d bc 7c 8c 2a bd 7b a2 8f bd
       -0.13149998 -0.012529733 -0.041637883 -0.070134126
000080 7c da ad 3b 51 9c 99 3c 26 68 0e be 3e 80 14 3d
       0.0053055864 0.018751295 -0.13906917 0.036255114
000090 50 0b 71 3d 49 36 a6 bb 03 3f 08 be 14 9d 98 bd
       0.05884868 -0.0050723893 -0.13305287 -0.07451835
0000a0 d4 f2 b2 bc 9a ce 05 3d 2f ef 82 bd 9f ab 42 bd
       -0.021844305 0.032667734 -0.06393277 -0.047526952
0000b0 d8 0a bc 3d 14 47 c0 3b 3d f0 02 3c 73 93 89 3d
       0.09181756 0.005867848 0.007991848 0.06717577
0000c0 c9 ce e4 bd ba 2f 2d bd e6 5e 5c 3c ee e4 32 bd
       -0.11172254 -0.042281844 0.01345036 -0.043675356
0000d0 65 40 bb bd ab ee 08 3e 06 e5 29 be bf 80 b9 3c
       -0.09143142 0.13372295 -0.16591272 0.022644399
0000e0 e5 4a 8d 3d 76 df 8f bd 9c 9e dc bd 93 21 16 3b
       0.068990506 -0.07025044 -0.1077244 0.0022908195
0000f0 70 ed 93 3d 4c 56 9e bd 41 17 ac bd 23 42 0f be
       0.07223022 -0.077313036 -0.08402873 -0.13990073
000100 94 73 03 3e 62 b9 57 bd fa 8b fd bd ff dd 90 3d
       0.12837058 -0.05266703 -0.12380214 0.070735924
000110 b9 6d 20 3c f5 f6 f9 3c fb 77 92 bd 3e 74 fd bd
       0.009791785 0.030513266 -0.07151791 -0.12375687
000120 e7 95 64 3d 77 ad c7 bd f4 6f 02 be 79 20 e1 bd
       0.05580702 -0.09749883 -0.12738019 -0.10992522
000130 cd 62 bb bc a3 80 0d bc a7 d2 8c bd 06 f9 02 3e
       -0.02287426 -0.008636626 -0.06876116 0.12790307
000140 a6 b0 ec bd 7a 2a 12 bd 99 ce 5a bb 32 4a ae bc
       -0.115571305 -0.03568504 -0.0033387302 -0.021275613
000150 aa 59 cd bc 06 fe c5 bb 9b 08 3b 3d 26 c0 cd bc
       -0.02506717 -0.006042245 0.045662504 -0.025116038
000160 0f ae 8a 3d 50 e8 3d be 22 2a d3 3d 9f 64 f9 bc
       0.0677148 -0.18545651 0.103107706 -0.030443488
000170 9b 6d 8b bd 44 a1 04 bd 9d 1c ef bc 40 8a a6 bd
       -0.06808015 -0.032380357 -0.029188449 -0.08131838
000180 f1 b6 33 3b 34 96 e6 3c 27 eb 47 bc 8a 92 c5 bd
       0.0027422274 0.028147794 -0.012202061 -0.09647091
000190 4b c2 a1 3d 19 0d 0c be 5a d7 07 be f1 41 06 bd
       0.078983866 -0.13676871 -0.13265744 -0.03277773
0001a0 c7 1b 17 be ec 63 e6 bd d9 74 94 bc 7b b4 56 bd
       -0.1475669 -0.11249527 -0.018122124 -0.052418213
0001b0 aa a1 95 bd 81 1d 0a 3d a7 25 29 bd ab 63 b1 3d
       -0.073062256 0.033719543 -0.041295674 0.08661588
0001c0 d6 d4 18 bd 98 76 b9 3b d0 1c b2 bb 4f 5c fc bd
       -0.03731235 0.0056598894 -0.0054355636 -0.12322294
0001d0 54 16 95 bd 5e 82 42 bd 93 74 e5 bc 87 24 57 bd
       -0.072796494 -0.04748761 -0.028009688 -0.05252507
0001e0 d3 c7 c0 3c 5d 4a 33 be 27 5f 6f bd b0 72 51 3c
       0.023532784 -0.17508836 -0.058440354 0.012783691
0001f0 56 5f 8e bd 05 cd 34 3d 46 7a 91 3b 2e 09 1c bd
       -0.06951778 0.044140834 0.004439625 -0.038094692
000200 ca 37 99 3d cc 82 f7 3c 78 03 32 3c 60 e2 58 3b
       0.07481344 0.030213736 0.010865085 0.0033093914
000210 39 91 0c bd 4b a2 8a 3d 6b 90 77 3d a3 f0 31 bd
       -0.034318183 0.06769236 0.060440462 -0.04344238
000220 da 93 90 bd a0 59 3a bd b7 30 6f 3e bf ec 6e bd
       -0.070594504 -0.04549563 0.23358427 -0.058331247
000230 bf cd e9 bc d3 d0 0e 3e ff 5b da 3c d8 90 22 bd
       -0.02854049 0.13946848 0.026655195 -0.039688915
000240 06 06 00 be c1 e8 91 3e 05 52 39 3c 0f 73 27 3e
       -0.12502298 0.2849789 0.011311059 0.16352485
000250 7c 16 13 bd 02 01 99 bc 45 de 07 3d 66 63 26 bd
       -0.035910115 -0.018677238 0.033170957 -0.040622137
000260 c0 18 1c 3d 40 d7 7b bd b3 85 6f 3d c4 1d 87 bd
       0.03810954 -0.061484575 0.058477115 -0.06597474
000270 13 7d 56 3c 31 42 dc bd c0 b7 5c 3d ed 15 79 bd
       0.013091343 -0.107548125 0.053886175 -0.060811926
000280 67 5e 8c 3d d8 90 80 bd 01 11 aa bd 53 ba 9c bc
       0.06853943 -0.06277627 -0.083040245 -0.019131815
000290 5d 47 b6 3d a6 1f 09 3d 1b fc 04 bd 3c 06 0a bc
       0.0890033 0.033477448 -0.03246699 -0.008424338
0002a0 57 f8 61 ba 9a 44 a7 bd 5e 0d e6 bc 4a 0e 8c 3c
       -0.00086200744 -0.081673816 -0.028082546 0.017096657
0002b0 2f ab 0e 3e e7 1d 62 3d 14 a6 8e bc a1 38 bc bc
       0.13932489 0.0552043 -0.017413177 -0.022976222
0002c0 24 96 3f 3d 33 bd bb 3d a3 5d 36 3d 74 b1 48 3d
       0.046774045 0.09166946 0.044522893 0.048997357
0002d0 ef ba f3 3d 2a 7b 29 3e ad 03 dd bd 0c ae 9a bc
       0.11900889 0.1655089 -0.10791717 -0.01888182
0002e0 56 ad ea 3d 9e b0 cc bd 16 5f 26 bd 42 94 4b bd
       0.114588425 -0.099946246 -0.040618025 -0.049701937
0002f0 fa 5b 94 3d a4 60 54 3d 2a c9 14 3b a4 f4 04 be
       0.07244106 0.051849976 0.002270291 -0.12983948
000300 32 5d 30 3e 4a 2a cb 3b b9 56 11 3c 13 eb 3d bd
       0.17223051 0.0062001096 0.008870774 -0.046366762
000310 d5 8a 6e 3d ae 1c 28 3c 7b 42 e2 bc c9 b9 51 bd
       0.05823787 0.010260744 -0.027619591 -0.05120257
000320 0f 75 00 3d bc fe 73 bc d0 68 39 3e 66 fd a5 bd
       0.031361636 -0.014892276 0.18106389 -0.081049725
000330 70 a2 b0 bd e6 15 5a bd d1 89 84 bd a3 66 8b 3e
       -0.086247325 -0.05324354 -0.06471599 0.27226743
000340 ca 8f 6f 3c 6d f6 97 3c b9 83 ce 3d cb cb 8d bd
       0.014621684 0.018550122 0.10083718 -0.06923636
000350 e8 cb a9 bd b5 b5 7f bd 47 5e 95 3d 0d a2 48 3d
       -0.08290845 -0.06242915 0.072933726 0.04898267
000360 af 87 5a 3d 1a 93 74 bd 9d 05 8e 3d b5 f4 2e bd
       0.053352054 -0.0597106 0.069346644 -0.04271384
000370 9b 50 30 bd 04 9d 85 3d d5 c2 98 3d 50 cb bc bc
       -0.04304562 0.06524089 0.07459036 -0.023046166
000380 61 10 8f 3d 37 5c 49 3d 7e 1e ec bd 1b ed 1f 3c
       0.06985546 0.04916021 -0.115292534 0.00976112
000390 a2 b0 80 3c f0 06 8b 3d 1b 50 89 3c 8a 5d f4 bd
       0.015709225 0.067884326 0.01676183 -0.11931904
0003a0 97 f0 83 3e 7c dc d1 bd 55 38 c3 bd de d9 2c 3d
       0.25769493 -0.10247132 -0.09532229 0.04219996
0003b0 20 e5 24 38 d6 ae 14 3e 0c ff d2 3c c6 24 1e 3e
       3.9314036e-05 0.1451982 0.025756381 0.15443715
0003c0 42 24 ba 3d 71 1e 31 3b 26 59 1f bd 18 d6 dc bd
       0.09088947 0.00270262 -0.038903378 -0.10783023
0003d0 94 72 67 bd 1b 52 58 3e 26 46 45 3b 89 01 94 bc
       -0.056505755 0.21125071 0.0030101626 -0.018067138
0003e0 b6 6d b5 bd d1 0f 0f be c3 85 1a 3e d7 c9 37 bd
       -0.08858816 -0.13970877 0.15090089 -0.044870224
0003f0 46 ae 2c 3b a3 91 08 3e e8 52 58 bd 1f 53 0a be
       0.0026348992 0.13336806 -0.05281344 -0.1350827

lstm.weight_ih_l1 f4 [512, 128]
000000 b1 f7 e5 bb f8 59 11 bd 52 91 9f 3c 08 f9 41 3c
       -0.0070180525 -0.03548619 0.019478474 0.011839159
000010 f0 a5 18 bd 22 4f 75 3d 6e b9 95 bd 39 85 d4 3b
       -0.037267625 0.05988992 -0.073107585 0.006485608
000020 db 21 52 bc 04 ba 70 bd 6c a7 61 3d cd 2a 01 3e
       -0.012825455 -0.05877115 0.055091307 0.12613983
000030 9a 05 8b 3d ef 5a 33 be 7c 71 52 3d 9c e5 34 bc
       0.06788178 -0.17515157 0.05137776 -0.011041071
000040 77 bc 8a 3d 30 45 42 be 2a 71 21 bd 49 74 e3 bd
       0.06774228 -0.18971705 -0.039414562 -0.11106164
000050 6f 9a ed 3c bb 70 28 bd e4 e9 41 3d 96 00 3f 3d
       0.029004304 -0.041123133 0.047342196 0.04663142
000060 e6 7f 9a bd 90 26 a4 3b c8 fb be bd 83 43 fc bc
       -0.07543926 0.00500948 -0.09325367 -0.03079391
000070 44 9a c2 3d 1c a7 ad 3d 16 bf 77 3c 6a c1 3c bb
       0.0950208 0.08479139 0.015121242 -0.0028801807
000080 69 4d 5b bd 02 b9 15 3b 75 1b 1a 3d 62 de a6 bd
       -0.05354062 0.002284587 0.03762384 -0.08147885
000090 20 10 85 bd 41 ef 38 bd c0 f6 cd bd 7d 95 a3 3d
       -0.06497216 -0.045150045 -0.100568295 0.07987497
0000a0 30 ba b1 bd 97 08 cf bd 7c bd 02 3d 9b d2 32 3c
       -0.086780906 -0.1010906 0.031918988 0.01091447
0000b0 a9 bb 23 be cf 2c 31 3e 08 94 49 bd 88 09 b7 3d
       -0.15989555 0.1730225 -0.04921344 0.08937365
0000c0 9e 2b a0 3c 33 0e c3 3c cf 65 be 3d fe 74 a1 3a
       0.019552048 0.023810482 0.09296762 0.0012318192
0000d0 83 0b 8a 3d 51 64 95 3d ba 60 04 bd 26 ff 3b 3d
       0.06740477 0.072945245 -0.03231881 0.045897625
0000e0 49 9e 94 bd bf 9c 04 3d 87 9d 1d 3d 1c 3b 8b 3c
       -0.07256753 0.032376047 0.038480308 0.016995959
0000f0 61 28 83 3d 8b 41 9f 3d 52 50 eb 3c fc 6a e0 3c
       0.06404186 0.07776173 0.028724823 0.027394764
000100 75 6a 24 3c 01 0b d5 3d 3d a5 3d bc 15 eb a4 3c
       0.010035147 0.104024895 -0.01157504 0.020131627
000110 c9 90 c1 3d 1c c1 9d b9 13 54 72 bc 71 7a a8 3c
       0.09451444 -0.0003008925 -0.014790553 0.020566197
000120 40 50 98 3d 22 ea 7c 3d ed 6e 66 3d f3 43 76 3d
       0.074371815 0.061746724 0.05625813 0.060123395
000130 e3 28 07 bc 03 c5 97 3d 3a dc 29 bd 7d 1a 24 be
       -0.008249494 0.07410624 -0.04146979 -0.1602573
000140 74 da 93 3c d9 bd 8a 3c 74 49 33 bd 01 a4 42 3d
       0.018048503 0.01693623 -0.043771222 0.047519688
000150 76 24 1f bd 83 0b d9 3c 36 63 88 bd 3f 87 77 bd
       -0.03885313 0.026494747 -0.06659548 -0.060431715
000160 eb d5 be bd 3b cc a8 bd 01 5a c6 3c 2e 74 60 3c
       -0.09318145 -0.08242079 0.02421284 0.013699574
000170 b7 de c4 3d 80 2c 8c bd fa 99 0e bd 08 fd 09 3c
       0.09612792 -0.06844425 -0.034814812 0.008422144
000180 31 b6 12 3d 3a 9e 81 bd 8f 6d 35 3d e1 e4 b5 bb
       0.035818283 -0.063290074 0.044293936 -0.005550966
000190 65 9a af bd f8 43 37 bd 92 6d b8 bd a3 1b f1 3c
       -0.0857437 -0.044742554 -0.09005274 0.029432124
0001a0 71 16 52 ba 06 cf 9d 3c 5b 23 02 3c 81 32 2f bd
       -0.0008014208 0.019263756 0.007943 -0.042772774
0001b0 d5 33 c8 3d b1 12 1a bd cd 87 8b bd 69 8e 41 3d
       0.09775511 -0.03761548 -0.06813011 0.047254954
0001c0 af 15 91 bc c6 7d 53 3d 5a e1 75 3d 98 2f 7b 3d
       -0.017710535 0.05163362 0.060029365 0.061324686
0001d0 04 62 c5 3d 6a 2e cf 3a 20 a5 cd 3d ac b3 9b 3d
       0.096378356 0.0015806679 0.10041261 0.07602629
0001e0 7a 8d f6 3c f8 b4 9e 3d c9 45 c2 bd fe 64 c7 3d
       0.030096758 0.07749361 -0.09485967 0.097360596
0001f0 25 e4 a7 bc 53 4f 6e 3d 3e 45 6b 3d b4 42 c4 bd
       -0.02049453 0.05818112 0.05743908 -0.09583035
000200 58 61 dc bd f9 54 80 be 01 94 c9 bc 43 73 65 bd
       -0.10760754 -0.2506483 -0.024606707 -0.056018125
000210 73 7f 20 3d df cf 36 3d 0b 12 55 3e 1c 7a fe bd
       0.039184045 0.044631835 0.20807664 -0.12425634
000220 e3 fa 5e be 6c 59 bc 3e 66 e5 3b 3f c5 e4 8c 3e
       -0.21775393 0.36786973 0.7339691 0.27518287
000230 5a a8 d4 bd 8f f3 45 bf 63 f3 24 bd fe 55 1f bd
       -0.10383673 -0.77324766 -0.040271174 -0.038900368
000240 c5 cf 54 3e c6 cf 75 bf 3d 55 2a bf a7 f6 ce bd
       0.20782383 -0.9602016 -0.66536313 -0.10105639
000250 ac 0d 18 3e d3 00 fa be b1 fa 65 3d 3a c6 8f 3d
       0.14848965 -0.48828754 0.05614728 0.070202306
000260 17 8c 04 bf 46 4d e6 bd 03 6c c1 3d 4a db 81 be
       -0.5177626 -0.112452075 0.0944443 -0.25362617
000270 40 2d 65 3e e8 84 48 3d d7 77 58 bc d0 be b5 be
       0.22380543 0.048954874 -0.013212166 -0.3549714
000280 ef 72 90 3e 66 cf 26 be 5a 66 4c be 5a dd 72 bd
       0.28212687 -0.16290054 -0.19960919 -0.05929313
000290 9a 61 4e be 3f 4c 91 be a0 31 78 be 03 4f 47 3e
       -0.2015442 -0.28378484 -0.2423768 0.19463734
0002a0 bd 80 6b bd 3a 9c 20 3b 87 8c f4 3d ad 4b 82 3e
       -0.05749582 0.002450718 0.11940866 0.2544836
0002b0 b0 49 ca be 94 04 4b 3f 2e d2 ef 3e 16 c2 6f be
       -0.39509344 0.7930386 0.46840042 -0.23413882
0002c0 b3 49 1d bd 95 c4 65 3d 0f 15 6d 3d b2 e4 89 3d
       -0.038400363 0.05609568 0.05788141 0.06733073
0002d0 72 a1 12 bd 1c f8 3a 3e d5 5f c5 3e 44 11 41 be
       -0.035798497 0.18258709 0.38549677 -0.18854243
0002e0 59 14 bc be 73 bf b2 bc a5 1a 2c be 2e 29 d2 3d
       -0.36734274 -0.021819806 -0.16807039 0.10261761
0002f0 9e ef e1 3d 06 b4 a8 3e d9 1a 3f 3e 5b f3 12 bf
       0.110320315 0.32949847 0.18662585 -0.5740258
000300 c3 e2 24 3e c6 48 4a bd 95 5b 20 be 1a 29 64 be
       0.16102128 -0.04938581 -0.15659936 -0.22281304
000310 c2 f3 23 3e 2c 91 42 3e 15 a3 ec 3b 63 d3 6a 3e
       0.16010955 0.19000691 0.0072215893 0.229322
000320 59 d8 05 3d c2 c3 11 bf 42 46 db 3e 7a 99 15 be
       0.03267703 -0.5693933 0.4282704 -0.14609328
000330 fc 28 b1 be f7 2b fd 3e ba 86 4d be 11 5a 55 bf
       -0.3460158 0.49447605 -0.20070925 -0.83340555
000340 8c fe ca 3d 65 b4 10 3f be a1 30 3e 7f 03 ab bc
       0.09911832 0.5652526 0.172492 -0.02087569
000350 59 79 91 3d 1a 3d 9d 3e 6c 78 c8 be 8c 4c c7 be
       0.07103223 0.3071068 -0.39154375 -0.38925588
000360 9d e2 35 bf 0d 99 c8 3d c4 a3 5e 3e 84 72 da 3d
       -0.7104891 0.09794817 0.21742159 0.10666373
000370 2d 5d 5e 3e 60 76 e2 3e 7a 9d de be da a7 ec bd
       0.21715231 0.44230938 -0.4347952 -0.11555453
000380 09 09 b7 bd 52 bc ca be e3 67 d2 3e 3c e5 c3 3e
       -0.0893727 -0.39596802 0.41094884 0.3826083
000390 9c 87 d5 be 09 23 42 3d 9c 0c 60 3e a3 9d 98 3e
       -0.41705024 0.047396693 0.2187981 0.29807767
0003a0 28 f7 63 bf b0 6a 73 3d ad f2 f0 be c6 af 79 bd
       -0.89049006 0.059427917 -0.47060147 -0.060958646
0003b0 2e 2c ad 3e 7b e5 5c bf 57 06 42 3e 31 e2 ad be
       0.3382277 -0.8628766 0.18947731 -0.33961633
0003c0 0e 40 b4 3b b9 eb e4 bd c8 cc 14 3e 7b a8 45 be
       0.0055008 -0.11177773 0.14531243 -0.19302551
0003d0 b8 43 31 3e 03 23 5d bf 80 27 c2 3e 5c de d2 be
       0.17310989 -0.8638155 0.3792076 -0.41185272
0003e0 3c 73 27 3e 8e eb c3 be 54 a3 03 be 58 27 70 3e
       0.16352552 -0.3826565 -0.12855273 0.23452508
0003f0 60 7c 91 bd a9 14 df 3e 0f d7 bf 3d d2 02 94 be
       -0.07103801 0.4357045 0.09367191 -0.28908402

lstm.weight_hh_l1 f4 [512, 128]
000000 1a d6 07 be 89 13 42 3d 52 42 93 3c 83 38 fb bb
       -0.13265267 0.04738191 0.01797596 -0.007666649
000010 b2 00 7b bd e5 02 ed bd d0 9c 87 bd 48 ff 46 bd
       -0.06127996 -0.11572818 -0.066217065 -0.0485833
000020 af ff 59 3d 92 9f 9d bd 30 86 ef 3c f9 fc 06 3d
       0.053222355 -0.07696451 0.02923879 0.032956097
000030 f4 8e da 3d 28 8a c4 3c 97 d5 1d bd 87 91 94 bd
       0.106717974 0.02399166 -0.038533773 -0.0725432
000040 e0 38 ff 3c 1d 4c 1a bd ec 01 d5 3b c0 0f 8c 3d
       0.03115505 -0.037670244 0.0065004732 0.068389416
000050 d0 00 85 3d c2 dc 5e bd 6e a2 f3 3c 03 97 4a bd
       0.064942956 -0.05440975 0.029740538 -0.049460422
000060 b6 e9 37 bd a5 e5 d5 bc fd f2 8c 3d 67 24 ff ba
       -0.04490062 -0.02611048 0.06882284 -0.0019465805
000070 db 96 ca 3c ab c4 8a 3d da 94 10 3d 14 6f 0c bc
       0.024730137 0.06775793 0.035298206 -0.008571405
000080 87 94 3a 3c a6 80 71 bd c5 7e ea bd 89 69 06 3d
       0.011387951 -0.05896058 -0.114499606 0.03281549
000090 7f b4 13 3d 84 03 41 ba 51 f4 52 bd d1 74 ec 3d
       0.036060806 -0.00073628896 -0.05150253 0.115457185
0000a0 15 1c f9 3c c3 2b f7 bb 97 06 87 3d 69 4e db 3c
       0.030408898 -0.0075430586 0.06593054 0.026770787
0000b0 6e 61 c8 3c b8 55 33 bc 84 64 8a 3d e0 84 95 3c
       0.02446052 -0.01094573 0.06757453 0.018251836
0000c0 d5 47 43 bd f0 6f d9 3d 02 f7 9b 3b 8d b0 c2 bd
       -0.047675926 0.106170535 0.0047596702 -0.09506331
0000d0 73 b8 19 3d 6e 9d 6d 3d 8a 9e 44 bd e9 41 ec bd
       0.03752942 0.058011465 -0.048002757 -0.11536009
0000e0 fa 8d 80 3d 25 c3 d0 3b 38 be ed 3c b8 51 dc ba
       0.0627708 0.0063709193 0.029021367 -0.0016809022
0000f0 b2 67 e0 bd 65 89 04 bc 2d 4c 96 3d 83 60 1e bd
       -0.10957278 -0.008089398 0.07338748 -0.03866626
000100 97 3d ed 3d 4e 45 b8 bd 49 74 da bc 34 f2 4d 3d
       0.11584013 -0.08997594 -0.026666777 0.05027981
000110 89 d0 7f 3d b3 b2 f1 bb 15 19 20 3d d2 c9 2f bc
       0.062454734 -0.007376039 0.03908642 -0.01072927
000120 af 7e 43 bb 38 0a a2 bc 73 c1 80 bb 2d b6 cd 3d
       -0.0029830148 -0.019780263 -0.003929311 0.10044513
000130 36 6f 72 3c b9 6d 93 bc 8e d5 e8 3c 11 bc 84 bd
       0.014797023 -0.017996656 0.028422143 -0.06481183
000140 5d 47 d7 bc 94 57 3b bd 93 0e 87 bd 58 41 23 be
       -0.026279146 -0.045737818 -0.06594577 -0.15942895
000150 fb 3a bd 3c 94 2a c9 bd 43 e0 89 bd 7b e4 9c bd
       0.023099413 -0.09822574 -0.06732228 -0.07660767
000160 ae c6 66 3d c0 f6 c1 3d 9a 94 a4 bc 05 45 b4 bc
       0.05634182 0.09470892 -0.02009039 -0.022005567
000170 d7 8a a4 3c b2 21 10 be ae ee bd bd 52 e8 a8 3b
       0.020085735 -0.14075354 -0.0927404 0.005154648
000180 ed cd 8a bd 8d 10 93 3c 3e 66 6c bd 88 44 1e be
       -0.067775585 0.017952228 -0.057714693 -0.1545583
000190 5f 94 a6 bd cb 25 06 3e b7 61 62 3d 1a 59 d4 bc
       -0.08133768 0.13100354 0.05526897 -0.025921393
0001a0 f5 e2 dd bd 16 52 01 3e c6 cb 80 bd 3c 99 15 3e
       -0.10834304 0.1262897 -0.06288867 0.14609236
0001b0 6a 22 ca 3b cf 7f a5 3d 65 e5 9d 3d 7a 64 0f bd
       0.0061686533 0.08081018 0.07709769 -0.03500793
0001c0 d5 8a 77 3d 9f 7f 73 bc b7 e5 8b bd db d3 c3 bd
       0.060435135 -0.01486197 -0.06830924 -0.095618926
0001d0 8f 81 f7 bd df 02 6e bc 0a 47 18 be 3b d5 a8 bd
       -0.12085258 -0.014527052 -0.14870849 -0.082437955
0001e0 e8 26 54 3c 36 2b fe 3c 3a cb 96 bd 38 d8 92 bd
       0.012948729 0.031026464 -0.07362981 -0.07170147
0001f0 26 0e 9e bd 5c 09 8d 3d 44 97 20 bc 53 24 cf 3d
       -0.07717542 0.06886551 -0.00980169 0.1011435
000200 5d 16 06 3e 27 a1 90 be 28 21 83 bd 29 34 9c bb
       0.13094468 -0.2824795 -0.064028084 -0.00476696
000210 b0 2e 5f 3e 00 19 27 bd ca 3e 18 be 6d 89 bb 3c
       0.21795154 -0.040795326 -0.14867702 0.022892678
000220 e6 0f 11 bd 07 35 00 be d0 4d 38 3e 48 9d 19 be
       -0.035415553 -0.12520228 0.17998433 -0.15001404
000230 db 13 1a bb 41 91 26 3d 67 52 1e 3c 49 0b bf 3c
       -0.002351037 0.04066587 0.009663201 0.02332081
000240 c9 80 46 3e 4f e7 9f bd ba 30 a2 bd 34 48 86 bd
       0.19385065 -0.078077905 -0.0791945 -0.065567404
000250 81 a7 ec 3d d5 6c e2 bd bb 2e 97 3c 18 d3 37 be
       0.11555386 -0.11055914 0.0184549 -0.1795162
000260 be 34 dc be 28 c7 dd be 7f 3c 31 3e 10 f8 cd 3d
       -0.4300899 -0.43316007 0.17308234 0.1005708
000270 b7 3d dd bc 0d 93 d7 3d 3c 01 16 3e d6 81 89 ba
       -0.027006967 0.105260946 0.14648908 -0.0010490965
000280 61 91 30 be 77 d8 42 be b4 bc c6 bd f0 a2 19 be
       -0.17242958 -0.19027887 -0.09703961 -0.15003562
000290 c3 03 9d bd f6 e9 59 3d f1 58 44 be cc 07 5f 3d
       -0.07666733 0.05320164 -0.19174553 0.054450795
0002a0 06 c2 a2 bd da ab 9c be 5d 2e 60 3e 00 48 d6 3d
       -0.07947163 -0.30599862 0.21892686 0.10462952
0002b0 f5 d0 e7 bd a6 33 06 be d8 d0 b3 3c e1 61 f3 be
       -0.11319152 -0.1310564 0.02195017 -0.47535613
0002c0 11 5a 4f 3e 87 76 04 be fb 6b 1d bd e8 19 43 be
       0.20249201 -0.1293584 -0.038433056 -0.19052851
0002d0 ef 41 0c bc 8d 2b 2c 3d 25 d2 3a bd ee 89 36 bc
       -0.008560642 0.04203372 -0.045610566 -0.011141283
0002e0 06 27 96 3d 3d 7d d2 3d a7 d0 07 bd ba a0 88 3d
       0.07331662 0.102777936 -0.03315797 0.06671281
0002f0 8d 74 6c be 1e b2 4f be f1 99 17 3e c5 ba 49 3e
       -0.23091336 -0.2028279 0.14804818 0.19700153
000300 d8 a5 aa 3d 45 15 7a bd f6 e9 91 bd 7b 4e 12 bd
       0.083324134 -0.06105544 -0.07124703 -0.035719376
000310 85 c3 59 3e 0b eb 7e 3e 66 f5 10 be 82 44 75 bc
       0.21265991 0.2489435 -0.14156112 -0.014969947
000320 9e a3 9e bd 58 e4 bc 3d a6 a6 dc bd 14 69 58 3d
       -0.07746051 0.092232406 -0.10773973 0.052834585
000330 c8 94 a1 bd 08 31 c6 3d c4 b9 b4 be 41 ab 8c be
       -0.07889706 0.09677321 -0.35297978 -0.27474406
000340 a0 36 01 be 84 d0 cf 3b 09 91 32 be 0b 0d 5c be
       -0.12618494 0.0063419957 -0.17438139 -0.2148935
000350 bb 6c c2 bd 68 e0 1a be 50 ff 92 bb 77 9c fa 3d
       -0.09493395 -0.15124667 -0.004486002 0.122368746
000360 b3 26 2d 3e a2 4a 07 3e 92 34 29 3e f1 d7 db bd
       0.16909294 0.13212064 0.1652396 -0.10734547
000370 57 0e 8f 3d 01 97 0f be a2 a9 f1 bd 95 08 73 be
       0.06985157 -0.14022447 -0.11799933 -0.23733743
000380 ee 4e 5f 3f 8f ad 3c 3e 68 81 ac 3d 2e 9e 8b be
       0.8722981 0.18425582 0.0842312 -0.2726912
000390 af e3 3c 3d bf 05 01 3e 8b 4a 05 bd fa dd e3 3d
       0.046115573 0.12599848 -0.032541793 0.11126323
0003a0 5a 3e bd bd 82 f3 99 3d 44 7e 34 be 3d 2e 32 3e
       -0.09240408 0.075171486 -0.17626292 0.17400451
0003b0 3c 1b 06 3e 5f 26 af 3d 2e 47 25 bd 7d eb 36 bd
       0.13096327 0.085522406 -0.040351085 -0.044658173
0003c0 fb 52 95 3d 2b 0d 9b bc a5 20 45 bd eb b7 85 be
       0.07291218 -0.018927177 -0.048126835 -0.2611688
0003d0 17 ac 5e be 2c 61 86 be c6 5e 3b be c9 21 0f be
       -0.21745335 -0.2624601 -0.18297872 -0.13977732
0003e0 8c a0 1b be 22 56 7c 3e 60 45 83 3b dc a6 c8 bd
       -0.15197963 0.24642232 0.004006073 -0.09797451
0003f0 ff da c3 bd c2 cf 4e 3e 80 f1 4d be 39 98 06 3e
       -0.095632546 0.20196441 -0.20111656 0.13144006

lstm.bias_ih_l1 f4 [512]
000000 c4 8a 2d bd cd 83 19 be c0 42 53 be c4 73 76 bd
       -0.042368665 -0.14991684 -0.20630932 -0.060168996
000010 15 4a a2 be f8 7a 32 3d 0c 6c 34 be af 43 25 be
       -0.31697145 0.043574303 -0.17619342 -0.161391
000020 3e 32 d6 bd 16 1d e5 bd 0c 01 b7 3d 31 0c 89 bd
       -0.10458802 -0.11187188 0.089357466 -0.066917785
000030 f2 d7 85 be 24 07 fa bd de 33 28 be 01 a4 ff 3c
       -0.26141316 -0.12208393 -0.16426036 0.031206133
000040 6f 1b 61 bd 66 34 54 3d 9b 89 05 bd 40 2b a1 be
       -0.054957803 0.051807784 -0.032601934 -0.3147831
000050 ae 9f e5 bd 12 28 f2 3c 39 82 19 3c 93 c9 12 be
       -0.11212097 0.029560123 0.009369426 -0.14334707
000060 03 49 ba bb b6 de 35 be 15 8d 3d be 72 d6 09 be
       -0.005684973 -0.17760739 -0.1851085 -0.1346071
000070 a2 aa 0d be 8e bf 90 be 3b b4 fd 3c a0 e7 2f bd
       -0.13834623 -0.28271145 0.03096973 -0.042945504
000080 09 29 74 be e5 8e 2a be 3b 33 eb bd a8 fa 36 be
       -0.23843779 -0.16656072 -0.11484381 -0.17869055
000090 4b bc d5 bd 49 19 56 be 24 ac b7 bd 79 d3 e1 bd
       -0.10436305 -0.20908083 -0.0896838 -0.11026663
0000a0 d0 32 91 be 3f 56 df bd 52 47 68 bd d2 6a a9 bd
       -0.2835908 -0.10905122 -0.05670864 -0.082723275
0000b0 29 19 14 be 19 cf 36 bd a3 b3 0c be 8a e7 75 be
       -0.14462723 -0.044631097 -0.13740401 -0.24014106
0000c0 f7 3d c6 bc 95 69 0e be 8a 24 f6 bd 06 fc 03 be
       -0.024199469 -0.13907464 -0.12018688 -0.12889108
0000d0 e0 e0 de ba f6 99 82 be 21 8e 14 be 2b 09 02 be
       -0.0017004274 -0.25508088 -0.14507343 -0.1269881
0000e0 a5 bf 63 be 52 08 d3 3a 95 6d e7 3c 44 93 f0 bb
       -0.22241075 0.0016100502 0.028250495 -0.007341774
0000f0 29 95 e4 bc 2c 4b 4c bd 0b 16 54 bc a5 08 99 bd
       -0.027903156 -0.049876377 -0.012944709 -0.07472352
000100 e2 dd 5b bd 0e 24 11 be dc bc e8 bc 3f 1a 2f be
       -0.0536784 -0.1417391 -0.028410368 -0.17099856
000110 47 df d6 bd 78 bb 0c bd 78 94 88 be 87 04 01 be
       -0.104918055 -0.03435847 -0.26675773 -0.12599383
000120 7f a0 20 be 11 0e 02 be 97 11 a2 be 8a 50 f5 bd
       -0.15686224 -0.12700678 -0.31654045 -0.11978252
000130 19 26 f1 bc d3 01 0a be c3 77 d3 bd 00 4d 42 3c
       -0.029437112 -0.13477258 -0.10325577 0.011859179
000140 de ce a6 bd b4 5f 5d bd 46 5f 29 3c 10 24 5b 3c
       -0.081449255 -0.054046348 0.010337656 0.013375297
000150 57 e5 25 be a3 6c 22 be 53 08 12 be 81 7b 08 be
       -0.16200767 -0.15861754 -0.14260988 -0.13328363
000160 86 f9 58 bd 86 b5 fe bd e5 17 10 be c0 4d 0b bd
       -0.05297234 -0.124369666 -0.14071615 -0.034009695
000170 c8 8c 9e bd 1b 1d c0 bd d5 24 11 bd 6f 72 b8 bd
       -0.07741696 -0.093805514 -0.035435516 -0.090062015
000180 19 6b dc 3d 5e eb 00 be 97 ce f3 bc bb 94 5a bd
       0.10762615 -0.12589785 -0.029761596 -0.053364497
000190 b8 c8 45 be 61 37 b1 bd 28 92 8a 3a 70 88 f3 bd
       -0.1931485 -0.08653141 0.0010572122 -0.11891258
0001a0 83 7d 01 3d 81 cb 75 bc 37 57 92 be f5 33 18 3d
       0.031613838 -0.015002132 -0.28582165 0.037158925
0001b0 0e d5 a3 bd b7 0b 0c ba bc a6 92 be 2b 7a f4 bd
       -0.07999621 -0.0005342322 -0.28642833 -0.11937364
0001c0 00 39 8d bc fc 08 1a be 7f 4f 97 bd 19 06 c9 bd
       -0.017239094 -0.1504249 -0.073882096 -0.09815616
0001d0 f0 48 4f be 6c 51 85 3a 28 2e 6e 3d 03 b0 0a be
       -0.20242667 0.001017136 0.058149487 -0.13543706
0001e0 83 24 cb bd 5f ac 32 be ec f4 33 be 45 02 ce bc
       -0.099190734 -0.17448567 -0.17573899 -0.025147567
0001f0 c5 be 00 bd 5c 8f cc bd b1 62 0d be 0b 9a 04 bd
       -0.031431932 -0.09988281 -0.13807179 -0.03237347
000200 87 b3 04 be a4 1e 71 bd 15 d3 64 be f1 33 87 bc
       -0.12959109 -0.05886711 -0.22346146 -0.01650426
000210 d3 38 1a be 43 32 09 ba 71 14 87 be c9 f7 57 be
       -0.15060739 -0.0005233625 -0.26382783 -0.21090616
000220 9b 9d ab bc 56 03 3a bd 00 b6 a1 bc a1 ba a7 bd
       -0.020949176 -0.045413338 -0.019740105 -0.081898935
000230 dc 30 81 be 42 96 cb bd f0 c4 bf bd 5a 2d ac bb
       -0.2523259 -0.09940769 -0.09363735 -0.0052544298
000240 77 e6 80 3d 65 af 33 bd f5 4e 7c 3c 9b b1 af bd
       0.06293958 -0.04386844 0.015399684 -0.085787974
000250 ba b2 24 be fa 85 a9 bd e2 f8 59 3c 7a a2 9e bd
       -0.16083804 -0.08277507 0.013303967 -0.07745834
000260 4e 9b bf 3a b4 c7 11 bd a0 f4 9a be 75 a7 d7 bd
       0.0014618428 -0.035590842 -0.3026476 -0.10529987
000270 ce dc 42 bc 9a 06 5b be 40 5b 8f bc bb e1 b1 bd
       -0.011893464 -0.21389237 -0.017499566 -0.08685633
000280 1b a5 74 be de 2f 64 be 59 b2 3d 3b c1 82 04 be
       -0.23891108 -0.22283885 0.0028945415 -0.12940504
000290 55 1f 7e be 55 eb 0e be 03 cd 45 be 65 c0 46 bd
       -0.2481664 -0.1395696 -0.19316487 -0.048523325
0002a0 4f f0 c9 bd 22 e6 5b bc 49 5b 29 be 05 f2 d9 bd
       -0.09860288 -0.013421567 -0.16538729 -0.10641865
0002b0 65 fe 08 bd 13 fd 27 be 3f 83 0b be a8 24 2c be
       -0.033445735 -0.16405134 -0.13624285 -0.16810858
0002c0 48 a0 25 be d8 6e 04 be ed 29 e8 bd 8c 43 f1 bd
       -0.16174424 -0.12932909 -0.11336122 -0.11780462
0002d0 dc 2f da bc 52 17 a0 be e0 83 d1 be 94 73 d2 bc
       -0.02663415 -0.31267792 -0.40920925 -0.025689878
0002e0 d1 db a7 be bb 27 29 3d ae de 5e bd 49 ce 90 bd
       -0.32784894 0.041297656 -0.054411583 -0.07070596
0002f0 13 2c 0b bd 12 35 f3 bd 55 47 31 bd 7a 3d 5e bd
       -0.03397758 -0.11875357 -0.04328092 -0.054257847
000300 11 29 67 bd 5b 8e e7 bd af 9a 68 bc 2c 8a ba bd
       -0.05643565 -0.11306449 -0.014197036 -0.091083854
000310 2a ff 50 bd a0 5e b8 bd 13 d5 9d be 3a 6b 31 be
       -0.051024593 -0.09002423 -0.30826625 -0.1732606
000320 a1 c7 ef bd 14 4e ee be 34 08 1b be 77 bb 1c 3d
       -0.11707998 -0.46543944 -0.15139848 0.038264718
000330 49 d6 86 bd 49 62 25 be b3 4e 6b be 90 37 ca 3c
       -0.065838404 -0.16150774 -0.2297924 0.024684697
000340 7f 5d 3f bd c9 8e f4 bd d8 03 b6 3c 74 0f 2b 3c
       -0.046720024 -0.119412966 0.02221863 0.010440696
000350 98 f4 ae be 35 55 a7 3c ef 86 d0 bd e8 2a a1 bd
       -0.34170985 0.020426372 -0.101819865 -0.07869512
000360 90 9e 0d be 97 a2 fd bd 40 c3 4c be f1 f1 f4 bb
       -0.13830018 -0.12384527 -0.19996357 -0.0074751307
000370 a6 17 8d bd a2 a0 e6 3c d5 03 93 3c 85 ab f8 bd
       -0.06889276 0.028152768 0.017946163 -0.1214209
000380 7f b3 98 3d d8 98 38 be a2 4e 90 bd 33 97 a3 bd
       0.07456111 -0.18027055 -0.07046248 -0.07987823
000390 52 3c 03 be 9f e9 e0 bc 95 fb 82 bd af e0 10 bd
       -0.12815979 -0.02745515 -0.06395642 -0.035370525
0003a0 36 70 ef bc fb 56 c2 bd c5 99 4f be c6 2c 51 3d
       -0.029228311 -0.094892465 -0.20273502 0.05106809
0003b0 9d 96 5d bd 80 b8 8f bd d9 61 14 be 55 71 1c be
       -0.054098714 -0.070176125 -0.14490451 -0.15277608
0003c0 73 97 02 3d ec af db bd d7 ff 3b 3c ac f3 ad bd
       0.031882714 -0.10726914 0.011474571 -0.08493742
0003d0 06 d8 35 be d1 39 cf 3c 3f be 01 bd 3e 55 4d bd
       -0.17758188 0.025296124 -0.031675573 -0.05013012
0003e0 22 0a 6f 3b 6d 03 29 be 49 ca 4f bc 2d 5a 14 bd
       0.0036474545 -0.16505213 -0.012682506 -0.03621881
0003f0 49 b0 cc bd f1 60 ab bc 63 87 34 be 21 6e c3 bd
       -0.09994561 -0.020920249 -0.17629771 -0.0954249
